func.func private @printMemrefF32(memref<*xf32>)
#map0 = affine_map<(d0, d1) -> (d0 * 8 + d1)>
#map1 = affine_map<(d0) -> (-d0 + 2, 0)>
#map2 = affine_map<(d0) -> (-d0 + 30, 5)>
#map3 = affine_map<(d0, d1) -> (-d1 + 2, 0)>
#map4 = affine_map<(d0, d1) -> (-d1 + 30, 5)>
#map5 = affine_map<(d0)[s0] -> (d0 + s0)>
#map6 = affine_map<(d0, d1) -> (d0 + d1 - 2)>
#map7 = affine_map<(d0) -> (0, d0 * 2)>
#map8 = affine_map<(d0)[s0, s1, s2, s3, s4] -> (s0 - ((s2 ceildiv s4) * s4 - s2), -(d0 * s3 - s2) + s0, d0 * s3 + (s1 - 1) * s4 - s2 - ((s2 ceildiv s4) * s4 - s2) + 1, d0 * s3 + (s1 - 1) * s4 - s2 - (d0 * s3 - s2) + 1)>
#map9 = affine_map<(d0, d1) -> (d0 * 16 + d1)>
#map10 = affine_map<(d0) -> (-d0 + 16, 5)>
#map11 = affine_map<(d0, d1) -> (-d1 + 16, 5)>
#map12 = affine_map<(d0, d1) -> (d0 + d1 * 8)>
#map13 = affine_map<(d0) -> (0, d0 * 3)>
func.func @entry() {
    %arg0 = memref.alloc(): memref<1x1x28x28xf32>


    %c3 = arith.constant 3 : index
    %cst = arith.constant 0xFF800000 : f32
    %c14 = arith.constant 14 : index
    %cst_0 = arith.constant 0.000000e+00 : f32
    %c2 = arith.constant 2 : index
    %c28 = arith.constant 28 : index
    %c1 = arith.constant 1 : index
    %c0 = arith.constant 0 : index
    %0 = memref.alloc() : memref<8x1x5x5xf32>
    %conv28_0000_a = arith.constant 0 : index
    %conv28_0000_b = arith.constant 0 : index
    %conv28_0000_c = arith.constant 0 : index
    %conv28_0000_d = arith.constant 0 : index
    %conv28_0000_v = arith.constant -0.008905669674277306 : f32
    memref.store %conv28_0000_v, %0[%conv28_0000_a, %conv28_0000_b, %conv28_0000_c, %conv28_0000_d] : memref<8x1x5x5xf32> 
    %conv28_0001_a = arith.constant 0 : index
    %conv28_0001_b = arith.constant 0 : index
    %conv28_0001_c = arith.constant 0 : index
    %conv28_0001_d = arith.constant 1 : index
    %conv28_0001_v = arith.constant -0.23690743744373322 : f32
    memref.store %conv28_0001_v, %0[%conv28_0001_a, %conv28_0001_b, %conv28_0001_c, %conv28_0001_d] : memref<8x1x5x5xf32> 
    %conv28_0002_a = arith.constant 0 : index
    %conv28_0002_b = arith.constant 0 : index
    %conv28_0002_c = arith.constant 0 : index
    %conv28_0002_d = arith.constant 2 : index
    %conv28_0002_v = arith.constant -0.5088216662406921 : f32
    memref.store %conv28_0002_v, %0[%conv28_0002_a, %conv28_0002_b, %conv28_0002_c, %conv28_0002_d] : memref<8x1x5x5xf32> 
    %conv28_0003_a = arith.constant 0 : index
    %conv28_0003_b = arith.constant 0 : index
    %conv28_0003_c = arith.constant 0 : index
    %conv28_0003_d = arith.constant 3 : index
    %conv28_0003_v = arith.constant -0.06456177681684494 : f32
    memref.store %conv28_0003_v, %0[%conv28_0003_a, %conv28_0003_b, %conv28_0003_c, %conv28_0003_d] : memref<8x1x5x5xf32> 
    %conv28_0004_a = arith.constant 0 : index
    %conv28_0004_b = arith.constant 0 : index
    %conv28_0004_c = arith.constant 0 : index
    %conv28_0004_d = arith.constant 4 : index
    %conv28_0004_v = arith.constant 0.14181184768676758 : f32
    memref.store %conv28_0004_v, %0[%conv28_0004_a, %conv28_0004_b, %conv28_0004_c, %conv28_0004_d] : memref<8x1x5x5xf32> 
    %conv28_0010_a = arith.constant 0 : index
    %conv28_0010_b = arith.constant 0 : index
    %conv28_0010_c = arith.constant 1 : index
    %conv28_0010_d = arith.constant 0 : index
    %conv28_0010_v = arith.constant -0.5919761657714844 : f32
    memref.store %conv28_0010_v, %0[%conv28_0010_a, %conv28_0010_b, %conv28_0010_c, %conv28_0010_d] : memref<8x1x5x5xf32> 
    %conv28_0011_a = arith.constant 0 : index
    %conv28_0011_b = arith.constant 0 : index
    %conv28_0011_c = arith.constant 1 : index
    %conv28_0011_d = arith.constant 1 : index
    %conv28_0011_v = arith.constant -0.4752853810787201 : f32
    memref.store %conv28_0011_v, %0[%conv28_0011_a, %conv28_0011_b, %conv28_0011_c, %conv28_0011_d] : memref<8x1x5x5xf32> 
    %conv28_0012_a = arith.constant 0 : index
    %conv28_0012_b = arith.constant 0 : index
    %conv28_0012_c = arith.constant 1 : index
    %conv28_0012_d = arith.constant 2 : index
    %conv28_0012_v = arith.constant -0.049348145723342896 : f32
    memref.store %conv28_0012_v, %0[%conv28_0012_a, %conv28_0012_b, %conv28_0012_c, %conv28_0012_d] : memref<8x1x5x5xf32> 
    %conv28_0013_a = arith.constant 0 : index
    %conv28_0013_b = arith.constant 0 : index
    %conv28_0013_c = arith.constant 1 : index
    %conv28_0013_d = arith.constant 3 : index
    %conv28_0013_v = arith.constant 0.7682155966758728 : f32
    memref.store %conv28_0013_v, %0[%conv28_0013_a, %conv28_0013_b, %conv28_0013_c, %conv28_0013_d] : memref<8x1x5x5xf32> 
    %conv28_0014_a = arith.constant 0 : index
    %conv28_0014_b = arith.constant 0 : index
    %conv28_0014_c = arith.constant 1 : index
    %conv28_0014_d = arith.constant 4 : index
    %conv28_0014_v = arith.constant 0.26346519589424133 : f32
    memref.store %conv28_0014_v, %0[%conv28_0014_a, %conv28_0014_b, %conv28_0014_c, %conv28_0014_d] : memref<8x1x5x5xf32> 
    %conv28_0020_a = arith.constant 0 : index
    %conv28_0020_b = arith.constant 0 : index
    %conv28_0020_c = arith.constant 2 : index
    %conv28_0020_d = arith.constant 0 : index
    %conv28_0020_v = arith.constant -0.4917634427547455 : f32
    memref.store %conv28_0020_v, %0[%conv28_0020_a, %conv28_0020_b, %conv28_0020_c, %conv28_0020_d] : memref<8x1x5x5xf32> 
    %conv28_0021_a = arith.constant 0 : index
    %conv28_0021_b = arith.constant 0 : index
    %conv28_0021_c = arith.constant 2 : index
    %conv28_0021_d = arith.constant 1 : index
    %conv28_0021_v = arith.constant 0.05561765283346176 : f32
    memref.store %conv28_0021_v, %0[%conv28_0021_a, %conv28_0021_b, %conv28_0021_c, %conv28_0021_d] : memref<8x1x5x5xf32> 
    %conv28_0022_a = arith.constant 0 : index
    %conv28_0022_b = arith.constant 0 : index
    %conv28_0022_c = arith.constant 2 : index
    %conv28_0022_d = arith.constant 2 : index
    %conv28_0022_v = arith.constant 1.0189645290374756 : f32
    memref.store %conv28_0022_v, %0[%conv28_0022_a, %conv28_0022_b, %conv28_0022_c, %conv28_0022_d] : memref<8x1x5x5xf32> 
    %conv28_0023_a = arith.constant 0 : index
    %conv28_0023_b = arith.constant 0 : index
    %conv28_0023_c = arith.constant 2 : index
    %conv28_0023_d = arith.constant 3 : index
    %conv28_0023_v = arith.constant 0.5547041893005371 : f32
    memref.store %conv28_0023_v, %0[%conv28_0023_a, %conv28_0023_b, %conv28_0023_c, %conv28_0023_d] : memref<8x1x5x5xf32> 
    %conv28_0024_a = arith.constant 0 : index
    %conv28_0024_b = arith.constant 0 : index
    %conv28_0024_c = arith.constant 2 : index
    %conv28_0024_d = arith.constant 4 : index
    %conv28_0024_v = arith.constant -0.4416643977165222 : f32
    memref.store %conv28_0024_v, %0[%conv28_0024_a, %conv28_0024_b, %conv28_0024_c, %conv28_0024_d] : memref<8x1x5x5xf32> 
    %conv28_0030_a = arith.constant 0 : index
    %conv28_0030_b = arith.constant 0 : index
    %conv28_0030_c = arith.constant 3 : index
    %conv28_0030_d = arith.constant 0 : index
    %conv28_0030_v = arith.constant -0.15953698754310608 : f32
    memref.store %conv28_0030_v, %0[%conv28_0030_a, %conv28_0030_b, %conv28_0030_c, %conv28_0030_d] : memref<8x1x5x5xf32> 
    %conv28_0031_a = arith.constant 0 : index
    %conv28_0031_b = arith.constant 0 : index
    %conv28_0031_c = arith.constant 3 : index
    %conv28_0031_d = arith.constant 1 : index
    %conv28_0031_v = arith.constant 0.5575414896011353 : f32
    memref.store %conv28_0031_v, %0[%conv28_0031_a, %conv28_0031_b, %conv28_0031_c, %conv28_0031_d] : memref<8x1x5x5xf32> 
    %conv28_0032_a = arith.constant 0 : index
    %conv28_0032_b = arith.constant 0 : index
    %conv28_0032_c = arith.constant 3 : index
    %conv28_0032_d = arith.constant 2 : index
    %conv28_0032_v = arith.constant 0.5920912623405457 : f32
    memref.store %conv28_0032_v, %0[%conv28_0032_a, %conv28_0032_b, %conv28_0032_c, %conv28_0032_d] : memref<8x1x5x5xf32> 
    %conv28_0033_a = arith.constant 0 : index
    %conv28_0033_b = arith.constant 0 : index
    %conv28_0033_c = arith.constant 3 : index
    %conv28_0033_d = arith.constant 3 : index
    %conv28_0033_v = arith.constant -0.2947413921356201 : f32
    memref.store %conv28_0033_v, %0[%conv28_0033_a, %conv28_0033_b, %conv28_0033_c, %conv28_0033_d] : memref<8x1x5x5xf32> 
    %conv28_0034_a = arith.constant 0 : index
    %conv28_0034_b = arith.constant 0 : index
    %conv28_0034_c = arith.constant 3 : index
    %conv28_0034_d = arith.constant 4 : index
    %conv28_0034_v = arith.constant -0.6131798028945923 : f32
    memref.store %conv28_0034_v, %0[%conv28_0034_a, %conv28_0034_b, %conv28_0034_c, %conv28_0034_d] : memref<8x1x5x5xf32> 
    %conv28_0040_a = arith.constant 0 : index
    %conv28_0040_b = arith.constant 0 : index
    %conv28_0040_c = arith.constant 4 : index
    %conv28_0040_d = arith.constant 0 : index
    %conv28_0040_v = arith.constant 0.03849884867668152 : f32
    memref.store %conv28_0040_v, %0[%conv28_0040_a, %conv28_0040_b, %conv28_0040_c, %conv28_0040_d] : memref<8x1x5x5xf32> 
    %conv28_0041_a = arith.constant 0 : index
    %conv28_0041_b = arith.constant 0 : index
    %conv28_0041_c = arith.constant 4 : index
    %conv28_0041_d = arith.constant 1 : index
    %conv28_0041_v = arith.constant 0.22601930797100067 : f32
    memref.store %conv28_0041_v, %0[%conv28_0041_a, %conv28_0041_b, %conv28_0041_c, %conv28_0041_d] : memref<8x1x5x5xf32> 
    %conv28_0042_a = arith.constant 0 : index
    %conv28_0042_b = arith.constant 0 : index
    %conv28_0042_c = arith.constant 4 : index
    %conv28_0042_d = arith.constant 2 : index
    %conv28_0042_v = arith.constant -0.21855629980564117 : f32
    memref.store %conv28_0042_v, %0[%conv28_0042_a, %conv28_0042_b, %conv28_0042_c, %conv28_0042_d] : memref<8x1x5x5xf32> 
    %conv28_0043_a = arith.constant 0 : index
    %conv28_0043_b = arith.constant 0 : index
    %conv28_0043_c = arith.constant 4 : index
    %conv28_0043_d = arith.constant 3 : index
    %conv28_0043_v = arith.constant -0.47719430923461914 : f32
    memref.store %conv28_0043_v, %0[%conv28_0043_a, %conv28_0043_b, %conv28_0043_c, %conv28_0043_d] : memref<8x1x5x5xf32> 
    %conv28_0044_a = arith.constant 0 : index
    %conv28_0044_b = arith.constant 0 : index
    %conv28_0044_c = arith.constant 4 : index
    %conv28_0044_d = arith.constant 4 : index
    %conv28_0044_v = arith.constant -0.2917049527168274 : f32
    memref.store %conv28_0044_v, %0[%conv28_0044_a, %conv28_0044_b, %conv28_0044_c, %conv28_0044_d] : memref<8x1x5x5xf32> 
    %conv28_1000_a = arith.constant 1 : index
    %conv28_1000_b = arith.constant 0 : index
    %conv28_1000_c = arith.constant 0 : index
    %conv28_1000_d = arith.constant 0 : index
    %conv28_1000_v = arith.constant -0.039882346987724304 : f32
    memref.store %conv28_1000_v, %0[%conv28_1000_a, %conv28_1000_b, %conv28_1000_c, %conv28_1000_d] : memref<8x1x5x5xf32> 
    %conv28_1001_a = arith.constant 1 : index
    %conv28_1001_b = arith.constant 0 : index
    %conv28_1001_c = arith.constant 0 : index
    %conv28_1001_d = arith.constant 1 : index
    %conv28_1001_v = arith.constant 0.2185998111963272 : f32
    memref.store %conv28_1001_v, %0[%conv28_1001_a, %conv28_1001_b, %conv28_1001_c, %conv28_1001_d] : memref<8x1x5x5xf32> 
    %conv28_1002_a = arith.constant 1 : index
    %conv28_1002_b = arith.constant 0 : index
    %conv28_1002_c = arith.constant 0 : index
    %conv28_1002_d = arith.constant 2 : index
    %conv28_1002_v = arith.constant 0.49872705340385437 : f32
    memref.store %conv28_1002_v, %0[%conv28_1002_a, %conv28_1002_b, %conv28_1002_c, %conv28_1002_d] : memref<8x1x5x5xf32> 
    %conv28_1003_a = arith.constant 1 : index
    %conv28_1003_b = arith.constant 0 : index
    %conv28_1003_c = arith.constant 0 : index
    %conv28_1003_d = arith.constant 3 : index
    %conv28_1003_v = arith.constant 0.42367178201675415 : f32
    memref.store %conv28_1003_v, %0[%conv28_1003_a, %conv28_1003_b, %conv28_1003_c, %conv28_1003_d] : memref<8x1x5x5xf32> 
    %conv28_1004_a = arith.constant 1 : index
    %conv28_1004_b = arith.constant 0 : index
    %conv28_1004_c = arith.constant 0 : index
    %conv28_1004_d = arith.constant 4 : index
    %conv28_1004_v = arith.constant 0.048547789454460144 : f32
    memref.store %conv28_1004_v, %0[%conv28_1004_a, %conv28_1004_b, %conv28_1004_c, %conv28_1004_d] : memref<8x1x5x5xf32> 
    %conv28_1010_a = arith.constant 1 : index
    %conv28_1010_b = arith.constant 0 : index
    %conv28_1010_c = arith.constant 1 : index
    %conv28_1010_d = arith.constant 0 : index
    %conv28_1010_v = arith.constant -0.10118173062801361 : f32
    memref.store %conv28_1010_v, %0[%conv28_1010_a, %conv28_1010_b, %conv28_1010_c, %conv28_1010_d] : memref<8x1x5x5xf32> 
    %conv28_1011_a = arith.constant 1 : index
    %conv28_1011_b = arith.constant 0 : index
    %conv28_1011_c = arith.constant 1 : index
    %conv28_1011_d = arith.constant 1 : index
    %conv28_1011_v = arith.constant -0.2769094705581665 : f32
    memref.store %conv28_1011_v, %0[%conv28_1011_a, %conv28_1011_b, %conv28_1011_c, %conv28_1011_d] : memref<8x1x5x5xf32> 
    %conv28_1012_a = arith.constant 1 : index
    %conv28_1012_b = arith.constant 0 : index
    %conv28_1012_c = arith.constant 1 : index
    %conv28_1012_d = arith.constant 2 : index
    %conv28_1012_v = arith.constant -0.004399026278406382 : f32
    memref.store %conv28_1012_v, %0[%conv28_1012_a, %conv28_1012_b, %conv28_1012_c, %conv28_1012_d] : memref<8x1x5x5xf32> 
    %conv28_1013_a = arith.constant 1 : index
    %conv28_1013_b = arith.constant 0 : index
    %conv28_1013_c = arith.constant 1 : index
    %conv28_1013_d = arith.constant 3 : index
    %conv28_1013_v = arith.constant 0.5271722078323364 : f32
    memref.store %conv28_1013_v, %0[%conv28_1013_a, %conv28_1013_b, %conv28_1013_c, %conv28_1013_d] : memref<8x1x5x5xf32> 
    %conv28_1014_a = arith.constant 1 : index
    %conv28_1014_b = arith.constant 0 : index
    %conv28_1014_c = arith.constant 1 : index
    %conv28_1014_d = arith.constant 4 : index
    %conv28_1014_v = arith.constant 0.40340957045555115 : f32
    memref.store %conv28_1014_v, %0[%conv28_1014_a, %conv28_1014_b, %conv28_1014_c, %conv28_1014_d] : memref<8x1x5x5xf32> 
    %conv28_1020_a = arith.constant 1 : index
    %conv28_1020_b = arith.constant 0 : index
    %conv28_1020_c = arith.constant 2 : index
    %conv28_1020_d = arith.constant 0 : index
    %conv28_1020_v = arith.constant -0.15083789825439453 : f32
    memref.store %conv28_1020_v, %0[%conv28_1020_a, %conv28_1020_b, %conv28_1020_c, %conv28_1020_d] : memref<8x1x5x5xf32> 
    %conv28_1021_a = arith.constant 1 : index
    %conv28_1021_b = arith.constant 0 : index
    %conv28_1021_c = arith.constant 2 : index
    %conv28_1021_d = arith.constant 1 : index
    %conv28_1021_v = arith.constant -0.32669755816459656 : f32
    memref.store %conv28_1021_v, %0[%conv28_1021_a, %conv28_1021_b, %conv28_1021_c, %conv28_1021_d] : memref<8x1x5x5xf32> 
    %conv28_1022_a = arith.constant 1 : index
    %conv28_1022_b = arith.constant 0 : index
    %conv28_1022_c = arith.constant 2 : index
    %conv28_1022_d = arith.constant 2 : index
    %conv28_1022_v = arith.constant -0.15898573398590088 : f32
    memref.store %conv28_1022_v, %0[%conv28_1022_a, %conv28_1022_b, %conv28_1022_c, %conv28_1022_d] : memref<8x1x5x5xf32> 
    %conv28_1023_a = arith.constant 1 : index
    %conv28_1023_b = arith.constant 0 : index
    %conv28_1023_c = arith.constant 2 : index
    %conv28_1023_d = arith.constant 3 : index
    %conv28_1023_v = arith.constant 0.35899585485458374 : f32
    memref.store %conv28_1023_v, %0[%conv28_1023_a, %conv28_1023_b, %conv28_1023_c, %conv28_1023_d] : memref<8x1x5x5xf32> 
    %conv28_1024_a = arith.constant 1 : index
    %conv28_1024_b = arith.constant 0 : index
    %conv28_1024_c = arith.constant 2 : index
    %conv28_1024_d = arith.constant 4 : index
    %conv28_1024_v = arith.constant 0.3726355731487274 : f32
    memref.store %conv28_1024_v, %0[%conv28_1024_a, %conv28_1024_b, %conv28_1024_c, %conv28_1024_d] : memref<8x1x5x5xf32> 
    %conv28_1030_a = arith.constant 1 : index
    %conv28_1030_b = arith.constant 0 : index
    %conv28_1030_c = arith.constant 3 : index
    %conv28_1030_d = arith.constant 0 : index
    %conv28_1030_v = arith.constant -0.5676766633987427 : f32
    memref.store %conv28_1030_v, %0[%conv28_1030_a, %conv28_1030_b, %conv28_1030_c, %conv28_1030_d] : memref<8x1x5x5xf32> 
    %conv28_1031_a = arith.constant 1 : index
    %conv28_1031_b = arith.constant 0 : index
    %conv28_1031_c = arith.constant 3 : index
    %conv28_1031_d = arith.constant 1 : index
    %conv28_1031_v = arith.constant -0.38571643829345703 : f32
    memref.store %conv28_1031_v, %0[%conv28_1031_a, %conv28_1031_b, %conv28_1031_c, %conv28_1031_d] : memref<8x1x5x5xf32> 
    %conv28_1032_a = arith.constant 1 : index
    %conv28_1032_b = arith.constant 0 : index
    %conv28_1032_c = arith.constant 3 : index
    %conv28_1032_d = arith.constant 2 : index
    %conv28_1032_v = arith.constant -0.1736956238746643 : f32
    memref.store %conv28_1032_v, %0[%conv28_1032_a, %conv28_1032_b, %conv28_1032_c, %conv28_1032_d] : memref<8x1x5x5xf32> 
    %conv28_1033_a = arith.constant 1 : index
    %conv28_1033_b = arith.constant 0 : index
    %conv28_1033_c = arith.constant 3 : index
    %conv28_1033_d = arith.constant 3 : index
    %conv28_1033_v = arith.constant 0.22803734242916107 : f32
    memref.store %conv28_1033_v, %0[%conv28_1033_a, %conv28_1033_b, %conv28_1033_c, %conv28_1033_d] : memref<8x1x5x5xf32> 
    %conv28_1034_a = arith.constant 1 : index
    %conv28_1034_b = arith.constant 0 : index
    %conv28_1034_c = arith.constant 3 : index
    %conv28_1034_d = arith.constant 4 : index
    %conv28_1034_v = arith.constant 0.33274900913238525 : f32
    memref.store %conv28_1034_v, %0[%conv28_1034_a, %conv28_1034_b, %conv28_1034_c, %conv28_1034_d] : memref<8x1x5x5xf32> 
    %conv28_1040_a = arith.constant 1 : index
    %conv28_1040_b = arith.constant 0 : index
    %conv28_1040_c = arith.constant 4 : index
    %conv28_1040_d = arith.constant 0 : index
    %conv28_1040_v = arith.constant -0.38078179955482483 : f32
    memref.store %conv28_1040_v, %0[%conv28_1040_a, %conv28_1040_b, %conv28_1040_c, %conv28_1040_d] : memref<8x1x5x5xf32> 
    %conv28_1041_a = arith.constant 1 : index
    %conv28_1041_b = arith.constant 0 : index
    %conv28_1041_c = arith.constant 4 : index
    %conv28_1041_d = arith.constant 1 : index
    %conv28_1041_v = arith.constant -0.2294795960187912 : f32
    memref.store %conv28_1041_v, %0[%conv28_1041_a, %conv28_1041_b, %conv28_1041_c, %conv28_1041_d] : memref<8x1x5x5xf32> 
    %conv28_1042_a = arith.constant 1 : index
    %conv28_1042_b = arith.constant 0 : index
    %conv28_1042_c = arith.constant 4 : index
    %conv28_1042_d = arith.constant 2 : index
    %conv28_1042_v = arith.constant -0.06623970717191696 : f32
    memref.store %conv28_1042_v, %0[%conv28_1042_a, %conv28_1042_b, %conv28_1042_c, %conv28_1042_d] : memref<8x1x5x5xf32> 
    %conv28_1043_a = arith.constant 1 : index
    %conv28_1043_b = arith.constant 0 : index
    %conv28_1043_c = arith.constant 4 : index
    %conv28_1043_d = arith.constant 3 : index
    %conv28_1043_v = arith.constant -0.01456076093018055 : f32
    memref.store %conv28_1043_v, %0[%conv28_1043_a, %conv28_1043_b, %conv28_1043_c, %conv28_1043_d] : memref<8x1x5x5xf32> 
    %conv28_1044_a = arith.constant 1 : index
    %conv28_1044_b = arith.constant 0 : index
    %conv28_1044_c = arith.constant 4 : index
    %conv28_1044_d = arith.constant 4 : index
    %conv28_1044_v = arith.constant 0.2849120795726776 : f32
    memref.store %conv28_1044_v, %0[%conv28_1044_a, %conv28_1044_b, %conv28_1044_c, %conv28_1044_d] : memref<8x1x5x5xf32> 
    %conv28_2000_a = arith.constant 2 : index
    %conv28_2000_b = arith.constant 0 : index
    %conv28_2000_c = arith.constant 0 : index
    %conv28_2000_d = arith.constant 0 : index
    %conv28_2000_v = arith.constant -0.023685239255428314 : f32
    memref.store %conv28_2000_v, %0[%conv28_2000_a, %conv28_2000_b, %conv28_2000_c, %conv28_2000_d] : memref<8x1x5x5xf32> 
    %conv28_2001_a = arith.constant 2 : index
    %conv28_2001_b = arith.constant 0 : index
    %conv28_2001_c = arith.constant 0 : index
    %conv28_2001_d = arith.constant 1 : index
    %conv28_2001_v = arith.constant 0.10450534522533417 : f32
    memref.store %conv28_2001_v, %0[%conv28_2001_a, %conv28_2001_b, %conv28_2001_c, %conv28_2001_d] : memref<8x1x5x5xf32> 
    %conv28_2002_a = arith.constant 2 : index
    %conv28_2002_b = arith.constant 0 : index
    %conv28_2002_c = arith.constant 0 : index
    %conv28_2002_d = arith.constant 2 : index
    %conv28_2002_v = arith.constant 0.253627210855484 : f32
    memref.store %conv28_2002_v, %0[%conv28_2002_a, %conv28_2002_b, %conv28_2002_c, %conv28_2002_d] : memref<8x1x5x5xf32> 
    %conv28_2003_a = arith.constant 2 : index
    %conv28_2003_b = arith.constant 0 : index
    %conv28_2003_c = arith.constant 0 : index
    %conv28_2003_d = arith.constant 3 : index
    %conv28_2003_v = arith.constant 0.3617715537548065 : f32
    memref.store %conv28_2003_v, %0[%conv28_2003_a, %conv28_2003_b, %conv28_2003_c, %conv28_2003_d] : memref<8x1x5x5xf32> 
    %conv28_2004_a = arith.constant 2 : index
    %conv28_2004_b = arith.constant 0 : index
    %conv28_2004_c = arith.constant 0 : index
    %conv28_2004_d = arith.constant 4 : index
    %conv28_2004_v = arith.constant 0.6909624934196472 : f32
    memref.store %conv28_2004_v, %0[%conv28_2004_a, %conv28_2004_b, %conv28_2004_c, %conv28_2004_d] : memref<8x1x5x5xf32> 
    %conv28_2010_a = arith.constant 2 : index
    %conv28_2010_b = arith.constant 0 : index
    %conv28_2010_c = arith.constant 1 : index
    %conv28_2010_d = arith.constant 0 : index
    %conv28_2010_v = arith.constant 0.33491653203964233 : f32
    memref.store %conv28_2010_v, %0[%conv28_2010_a, %conv28_2010_b, %conv28_2010_c, %conv28_2010_d] : memref<8x1x5x5xf32> 
    %conv28_2011_a = arith.constant 2 : index
    %conv28_2011_b = arith.constant 0 : index
    %conv28_2011_c = arith.constant 1 : index
    %conv28_2011_d = arith.constant 1 : index
    %conv28_2011_v = arith.constant 0.4169996976852417 : f32
    memref.store %conv28_2011_v, %0[%conv28_2011_a, %conv28_2011_b, %conv28_2011_c, %conv28_2011_d] : memref<8x1x5x5xf32> 
    %conv28_2012_a = arith.constant 2 : index
    %conv28_2012_b = arith.constant 0 : index
    %conv28_2012_c = arith.constant 1 : index
    %conv28_2012_d = arith.constant 2 : index
    %conv28_2012_v = arith.constant 0.38482844829559326 : f32
    memref.store %conv28_2012_v, %0[%conv28_2012_a, %conv28_2012_b, %conv28_2012_c, %conv28_2012_d] : memref<8x1x5x5xf32> 
    %conv28_2013_a = arith.constant 2 : index
    %conv28_2013_b = arith.constant 0 : index
    %conv28_2013_c = arith.constant 1 : index
    %conv28_2013_d = arith.constant 3 : index
    %conv28_2013_v = arith.constant 0.3294100761413574 : f32
    memref.store %conv28_2013_v, %0[%conv28_2013_a, %conv28_2013_b, %conv28_2013_c, %conv28_2013_d] : memref<8x1x5x5xf32> 
    %conv28_2014_a = arith.constant 2 : index
    %conv28_2014_b = arith.constant 0 : index
    %conv28_2014_c = arith.constant 1 : index
    %conv28_2014_d = arith.constant 4 : index
    %conv28_2014_v = arith.constant 0.24301494657993317 : f32
    memref.store %conv28_2014_v, %0[%conv28_2014_a, %conv28_2014_b, %conv28_2014_c, %conv28_2014_d] : memref<8x1x5x5xf32> 
    %conv28_2020_a = arith.constant 2 : index
    %conv28_2020_b = arith.constant 0 : index
    %conv28_2020_c = arith.constant 2 : index
    %conv28_2020_d = arith.constant 0 : index
    %conv28_2020_v = arith.constant -0.469070702791214 : f32
    memref.store %conv28_2020_v, %0[%conv28_2020_a, %conv28_2020_b, %conv28_2020_c, %conv28_2020_d] : memref<8x1x5x5xf32> 
    %conv28_2021_a = arith.constant 2 : index
    %conv28_2021_b = arith.constant 0 : index
    %conv28_2021_c = arith.constant 2 : index
    %conv28_2021_d = arith.constant 1 : index
    %conv28_2021_v = arith.constant -0.07595888525247574 : f32
    memref.store %conv28_2021_v, %0[%conv28_2021_a, %conv28_2021_b, %conv28_2021_c, %conv28_2021_d] : memref<8x1x5x5xf32> 
    %conv28_2022_a = arith.constant 2 : index
    %conv28_2022_b = arith.constant 0 : index
    %conv28_2022_c = arith.constant 2 : index
    %conv28_2022_d = arith.constant 2 : index
    %conv28_2022_v = arith.constant -0.1445249766111374 : f32
    memref.store %conv28_2022_v, %0[%conv28_2022_a, %conv28_2022_b, %conv28_2022_c, %conv28_2022_d] : memref<8x1x5x5xf32> 
    %conv28_2023_a = arith.constant 2 : index
    %conv28_2023_b = arith.constant 0 : index
    %conv28_2023_c = arith.constant 2 : index
    %conv28_2023_d = arith.constant 3 : index
    %conv28_2023_v = arith.constant -0.17356260120868683 : f32
    memref.store %conv28_2023_v, %0[%conv28_2023_a, %conv28_2023_b, %conv28_2023_c, %conv28_2023_d] : memref<8x1x5x5xf32> 
    %conv28_2024_a = arith.constant 2 : index
    %conv28_2024_b = arith.constant 0 : index
    %conv28_2024_c = arith.constant 2 : index
    %conv28_2024_d = arith.constant 4 : index
    %conv28_2024_v = arith.constant -0.24677062034606934 : f32
    memref.store %conv28_2024_v, %0[%conv28_2024_a, %conv28_2024_b, %conv28_2024_c, %conv28_2024_d] : memref<8x1x5x5xf32> 
    %conv28_2030_a = arith.constant 2 : index
    %conv28_2030_b = arith.constant 0 : index
    %conv28_2030_c = arith.constant 3 : index
    %conv28_2030_d = arith.constant 0 : index
    %conv28_2030_v = arith.constant -0.9726812243461609 : f32
    memref.store %conv28_2030_v, %0[%conv28_2030_a, %conv28_2030_b, %conv28_2030_c, %conv28_2030_d] : memref<8x1x5x5xf32> 
    %conv28_2031_a = arith.constant 2 : index
    %conv28_2031_b = arith.constant 0 : index
    %conv28_2031_c = arith.constant 3 : index
    %conv28_2031_d = arith.constant 1 : index
    %conv28_2031_v = arith.constant -0.7156173586845398 : f32
    memref.store %conv28_2031_v, %0[%conv28_2031_a, %conv28_2031_b, %conv28_2031_c, %conv28_2031_d] : memref<8x1x5x5xf32> 
    %conv28_2032_a = arith.constant 2 : index
    %conv28_2032_b = arith.constant 0 : index
    %conv28_2032_c = arith.constant 3 : index
    %conv28_2032_d = arith.constant 2 : index
    %conv28_2032_v = arith.constant -0.5382127165794373 : f32
    memref.store %conv28_2032_v, %0[%conv28_2032_a, %conv28_2032_b, %conv28_2032_c, %conv28_2032_d] : memref<8x1x5x5xf32> 
    %conv28_2033_a = arith.constant 2 : index
    %conv28_2033_b = arith.constant 0 : index
    %conv28_2033_c = arith.constant 3 : index
    %conv28_2033_d = arith.constant 3 : index
    %conv28_2033_v = arith.constant -0.6167798638343811 : f32
    memref.store %conv28_2033_v, %0[%conv28_2033_a, %conv28_2033_b, %conv28_2033_c, %conv28_2033_d] : memref<8x1x5x5xf32> 
    %conv28_2034_a = arith.constant 2 : index
    %conv28_2034_b = arith.constant 0 : index
    %conv28_2034_c = arith.constant 3 : index
    %conv28_2034_d = arith.constant 4 : index
    %conv28_2034_v = arith.constant -0.44845151901245117 : f32
    memref.store %conv28_2034_v, %0[%conv28_2034_a, %conv28_2034_b, %conv28_2034_c, %conv28_2034_d] : memref<8x1x5x5xf32> 
    %conv28_2040_a = arith.constant 2 : index
    %conv28_2040_b = arith.constant 0 : index
    %conv28_2040_c = arith.constant 4 : index
    %conv28_2040_d = arith.constant 0 : index
    %conv28_2040_v = arith.constant -0.19898280501365662 : f32
    memref.store %conv28_2040_v, %0[%conv28_2040_a, %conv28_2040_b, %conv28_2040_c, %conv28_2040_d] : memref<8x1x5x5xf32> 
    %conv28_2041_a = arith.constant 2 : index
    %conv28_2041_b = arith.constant 0 : index
    %conv28_2041_c = arith.constant 4 : index
    %conv28_2041_d = arith.constant 1 : index
    %conv28_2041_v = arith.constant -0.3333558738231659 : f32
    memref.store %conv28_2041_v, %0[%conv28_2041_a, %conv28_2041_b, %conv28_2041_c, %conv28_2041_d] : memref<8x1x5x5xf32> 
    %conv28_2042_a = arith.constant 2 : index
    %conv28_2042_b = arith.constant 0 : index
    %conv28_2042_c = arith.constant 4 : index
    %conv28_2042_d = arith.constant 2 : index
    %conv28_2042_v = arith.constant -0.3490765392780304 : f32
    memref.store %conv28_2042_v, %0[%conv28_2042_a, %conv28_2042_b, %conv28_2042_c, %conv28_2042_d] : memref<8x1x5x5xf32> 
    %conv28_2043_a = arith.constant 2 : index
    %conv28_2043_b = arith.constant 0 : index
    %conv28_2043_c = arith.constant 4 : index
    %conv28_2043_d = arith.constant 3 : index
    %conv28_2043_v = arith.constant -0.14603577554225922 : f32
    memref.store %conv28_2043_v, %0[%conv28_2043_a, %conv28_2043_b, %conv28_2043_c, %conv28_2043_d] : memref<8x1x5x5xf32> 
    %conv28_2044_a = arith.constant 2 : index
    %conv28_2044_b = arith.constant 0 : index
    %conv28_2044_c = arith.constant 4 : index
    %conv28_2044_d = arith.constant 4 : index
    %conv28_2044_v = arith.constant -0.06359775364398956 : f32
    memref.store %conv28_2044_v, %0[%conv28_2044_a, %conv28_2044_b, %conv28_2044_c, %conv28_2044_d] : memref<8x1x5x5xf32> 
    %conv28_3000_a = arith.constant 3 : index
    %conv28_3000_b = arith.constant 0 : index
    %conv28_3000_c = arith.constant 0 : index
    %conv28_3000_d = arith.constant 0 : index
    %conv28_3000_v = arith.constant -0.29535022377967834 : f32
    memref.store %conv28_3000_v, %0[%conv28_3000_a, %conv28_3000_b, %conv28_3000_c, %conv28_3000_d] : memref<8x1x5x5xf32> 
    %conv28_3001_a = arith.constant 3 : index
    %conv28_3001_b = arith.constant 0 : index
    %conv28_3001_c = arith.constant 0 : index
    %conv28_3001_d = arith.constant 1 : index
    %conv28_3001_v = arith.constant -0.33241569995880127 : f32
    memref.store %conv28_3001_v, %0[%conv28_3001_a, %conv28_3001_b, %conv28_3001_c, %conv28_3001_d] : memref<8x1x5x5xf32> 
    %conv28_3002_a = arith.constant 3 : index
    %conv28_3002_b = arith.constant 0 : index
    %conv28_3002_c = arith.constant 0 : index
    %conv28_3002_d = arith.constant 2 : index
    %conv28_3002_v = arith.constant -0.32799458503723145 : f32
    memref.store %conv28_3002_v, %0[%conv28_3002_a, %conv28_3002_b, %conv28_3002_c, %conv28_3002_d] : memref<8x1x5x5xf32> 
    %conv28_3003_a = arith.constant 3 : index
    %conv28_3003_b = arith.constant 0 : index
    %conv28_3003_c = arith.constant 0 : index
    %conv28_3003_d = arith.constant 3 : index
    %conv28_3003_v = arith.constant -0.0792078748345375 : f32
    memref.store %conv28_3003_v, %0[%conv28_3003_a, %conv28_3003_b, %conv28_3003_c, %conv28_3003_d] : memref<8x1x5x5xf32> 
    %conv28_3004_a = arith.constant 3 : index
    %conv28_3004_b = arith.constant 0 : index
    %conv28_3004_c = arith.constant 0 : index
    %conv28_3004_d = arith.constant 4 : index
    %conv28_3004_v = arith.constant -0.22243107855319977 : f32
    memref.store %conv28_3004_v, %0[%conv28_3004_a, %conv28_3004_b, %conv28_3004_c, %conv28_3004_d] : memref<8x1x5x5xf32> 
    %conv28_3010_a = arith.constant 3 : index
    %conv28_3010_b = arith.constant 0 : index
    %conv28_3010_c = arith.constant 1 : index
    %conv28_3010_d = arith.constant 0 : index
    %conv28_3010_v = arith.constant -0.4767628610134125 : f32
    memref.store %conv28_3010_v, %0[%conv28_3010_a, %conv28_3010_b, %conv28_3010_c, %conv28_3010_d] : memref<8x1x5x5xf32> 
    %conv28_3011_a = arith.constant 3 : index
    %conv28_3011_b = arith.constant 0 : index
    %conv28_3011_c = arith.constant 1 : index
    %conv28_3011_d = arith.constant 1 : index
    %conv28_3011_v = arith.constant -0.21071620285511017 : f32
    memref.store %conv28_3011_v, %0[%conv28_3011_a, %conv28_3011_b, %conv28_3011_c, %conv28_3011_d] : memref<8x1x5x5xf32> 
    %conv28_3012_a = arith.constant 3 : index
    %conv28_3012_b = arith.constant 0 : index
    %conv28_3012_c = arith.constant 1 : index
    %conv28_3012_d = arith.constant 2 : index
    %conv28_3012_v = arith.constant -0.05752904713153839 : f32
    memref.store %conv28_3012_v, %0[%conv28_3012_a, %conv28_3012_b, %conv28_3012_c, %conv28_3012_d] : memref<8x1x5x5xf32> 
    %conv28_3013_a = arith.constant 3 : index
    %conv28_3013_b = arith.constant 0 : index
    %conv28_3013_c = arith.constant 1 : index
    %conv28_3013_d = arith.constant 3 : index
    %conv28_3013_v = arith.constant 0.16373887658119202 : f32
    memref.store %conv28_3013_v, %0[%conv28_3013_a, %conv28_3013_b, %conv28_3013_c, %conv28_3013_d] : memref<8x1x5x5xf32> 
    %conv28_3014_a = arith.constant 3 : index
    %conv28_3014_b = arith.constant 0 : index
    %conv28_3014_c = arith.constant 1 : index
    %conv28_3014_d = arith.constant 4 : index
    %conv28_3014_v = arith.constant 0.16197435557842255 : f32
    memref.store %conv28_3014_v, %0[%conv28_3014_a, %conv28_3014_b, %conv28_3014_c, %conv28_3014_d] : memref<8x1x5x5xf32> 
    %conv28_3020_a = arith.constant 3 : index
    %conv28_3020_b = arith.constant 0 : index
    %conv28_3020_c = arith.constant 2 : index
    %conv28_3020_d = arith.constant 0 : index
    %conv28_3020_v = arith.constant -0.39172589778900146 : f32
    memref.store %conv28_3020_v, %0[%conv28_3020_a, %conv28_3020_b, %conv28_3020_c, %conv28_3020_d] : memref<8x1x5x5xf32> 
    %conv28_3021_a = arith.constant 3 : index
    %conv28_3021_b = arith.constant 0 : index
    %conv28_3021_c = arith.constant 2 : index
    %conv28_3021_d = arith.constant 1 : index
    %conv28_3021_v = arith.constant -0.02351396717131138 : f32
    memref.store %conv28_3021_v, %0[%conv28_3021_a, %conv28_3021_b, %conv28_3021_c, %conv28_3021_d] : memref<8x1x5x5xf32> 
    %conv28_3022_a = arith.constant 3 : index
    %conv28_3022_b = arith.constant 0 : index
    %conv28_3022_c = arith.constant 2 : index
    %conv28_3022_d = arith.constant 2 : index
    %conv28_3022_v = arith.constant 0.12326627224683762 : f32
    memref.store %conv28_3022_v, %0[%conv28_3022_a, %conv28_3022_b, %conv28_3022_c, %conv28_3022_d] : memref<8x1x5x5xf32> 
    %conv28_3023_a = arith.constant 3 : index
    %conv28_3023_b = arith.constant 0 : index
    %conv28_3023_c = arith.constant 2 : index
    %conv28_3023_d = arith.constant 3 : index
    %conv28_3023_v = arith.constant 0.042400017380714417 : f32
    memref.store %conv28_3023_v, %0[%conv28_3023_a, %conv28_3023_b, %conv28_3023_c, %conv28_3023_d] : memref<8x1x5x5xf32> 
    %conv28_3024_a = arith.constant 3 : index
    %conv28_3024_b = arith.constant 0 : index
    %conv28_3024_c = arith.constant 2 : index
    %conv28_3024_d = arith.constant 4 : index
    %conv28_3024_v = arith.constant 0.22804906964302063 : f32
    memref.store %conv28_3024_v, %0[%conv28_3024_a, %conv28_3024_b, %conv28_3024_c, %conv28_3024_d] : memref<8x1x5x5xf32> 
    %conv28_3030_a = arith.constant 3 : index
    %conv28_3030_b = arith.constant 0 : index
    %conv28_3030_c = arith.constant 3 : index
    %conv28_3030_d = arith.constant 0 : index
    %conv28_3030_v = arith.constant 0.09454049170017242 : f32
    memref.store %conv28_3030_v, %0[%conv28_3030_a, %conv28_3030_b, %conv28_3030_c, %conv28_3030_d] : memref<8x1x5x5xf32> 
    %conv28_3031_a = arith.constant 3 : index
    %conv28_3031_b = arith.constant 0 : index
    %conv28_3031_c = arith.constant 3 : index
    %conv28_3031_d = arith.constant 1 : index
    %conv28_3031_v = arith.constant 0.3720371127128601 : f32
    memref.store %conv28_3031_v, %0[%conv28_3031_a, %conv28_3031_b, %conv28_3031_c, %conv28_3031_d] : memref<8x1x5x5xf32> 
    %conv28_3032_a = arith.constant 3 : index
    %conv28_3032_b = arith.constant 0 : index
    %conv28_3032_c = arith.constant 3 : index
    %conv28_3032_d = arith.constant 2 : index
    %conv28_3032_v = arith.constant 0.2193872630596161 : f32
    memref.store %conv28_3032_v, %0[%conv28_3032_a, %conv28_3032_b, %conv28_3032_c, %conv28_3032_d] : memref<8x1x5x5xf32> 
    %conv28_3033_a = arith.constant 3 : index
    %conv28_3033_b = arith.constant 0 : index
    %conv28_3033_c = arith.constant 3 : index
    %conv28_3033_d = arith.constant 3 : index
    %conv28_3033_v = arith.constant -0.011200291104614735 : f32
    memref.store %conv28_3033_v, %0[%conv28_3033_a, %conv28_3033_b, %conv28_3033_c, %conv28_3033_d] : memref<8x1x5x5xf32> 
    %conv28_3034_a = arith.constant 3 : index
    %conv28_3034_b = arith.constant 0 : index
    %conv28_3034_c = arith.constant 3 : index
    %conv28_3034_d = arith.constant 4 : index
    %conv28_3034_v = arith.constant 0.18117614090442657 : f32
    memref.store %conv28_3034_v, %0[%conv28_3034_a, %conv28_3034_b, %conv28_3034_c, %conv28_3034_d] : memref<8x1x5x5xf32> 
    %conv28_3040_a = arith.constant 3 : index
    %conv28_3040_b = arith.constant 0 : index
    %conv28_3040_c = arith.constant 4 : index
    %conv28_3040_d = arith.constant 0 : index
    %conv28_3040_v = arith.constant 0.3275194764137268 : f32
    memref.store %conv28_3040_v, %0[%conv28_3040_a, %conv28_3040_b, %conv28_3040_c, %conv28_3040_d] : memref<8x1x5x5xf32> 
    %conv28_3041_a = arith.constant 3 : index
    %conv28_3041_b = arith.constant 0 : index
    %conv28_3041_c = arith.constant 4 : index
    %conv28_3041_d = arith.constant 1 : index
    %conv28_3041_v = arith.constant 0.3511163592338562 : f32
    memref.store %conv28_3041_v, %0[%conv28_3041_a, %conv28_3041_b, %conv28_3041_c, %conv28_3041_d] : memref<8x1x5x5xf32> 
    %conv28_3042_a = arith.constant 3 : index
    %conv28_3042_b = arith.constant 0 : index
    %conv28_3042_c = arith.constant 4 : index
    %conv28_3042_d = arith.constant 2 : index
    %conv28_3042_v = arith.constant 0.029065223410725594 : f32
    memref.store %conv28_3042_v, %0[%conv28_3042_a, %conv28_3042_b, %conv28_3042_c, %conv28_3042_d] : memref<8x1x5x5xf32> 
    %conv28_3043_a = arith.constant 3 : index
    %conv28_3043_b = arith.constant 0 : index
    %conv28_3043_c = arith.constant 4 : index
    %conv28_3043_d = arith.constant 3 : index
    %conv28_3043_v = arith.constant 0.20922230184078217 : f32
    memref.store %conv28_3043_v, %0[%conv28_3043_a, %conv28_3043_b, %conv28_3043_c, %conv28_3043_d] : memref<8x1x5x5xf32> 
    %conv28_3044_a = arith.constant 3 : index
    %conv28_3044_b = arith.constant 0 : index
    %conv28_3044_c = arith.constant 4 : index
    %conv28_3044_d = arith.constant 4 : index
    %conv28_3044_v = arith.constant 0.3407168984413147 : f32
    memref.store %conv28_3044_v, %0[%conv28_3044_a, %conv28_3044_b, %conv28_3044_c, %conv28_3044_d] : memref<8x1x5x5xf32> 
    %conv28_4000_a = arith.constant 4 : index
    %conv28_4000_b = arith.constant 0 : index
    %conv28_4000_c = arith.constant 0 : index
    %conv28_4000_d = arith.constant 0 : index
    %conv28_4000_v = arith.constant -0.21453875303268433 : f32
    memref.store %conv28_4000_v, %0[%conv28_4000_a, %conv28_4000_b, %conv28_4000_c, %conv28_4000_d] : memref<8x1x5x5xf32> 
    %conv28_4001_a = arith.constant 4 : index
    %conv28_4001_b = arith.constant 0 : index
    %conv28_4001_c = arith.constant 0 : index
    %conv28_4001_d = arith.constant 1 : index
    %conv28_4001_v = arith.constant -0.12204788625240326 : f32
    memref.store %conv28_4001_v, %0[%conv28_4001_a, %conv28_4001_b, %conv28_4001_c, %conv28_4001_d] : memref<8x1x5x5xf32> 
    %conv28_4002_a = arith.constant 4 : index
    %conv28_4002_b = arith.constant 0 : index
    %conv28_4002_c = arith.constant 0 : index
    %conv28_4002_d = arith.constant 2 : index
    %conv28_4002_v = arith.constant -0.002380508929491043 : f32
    memref.store %conv28_4002_v, %0[%conv28_4002_a, %conv28_4002_b, %conv28_4002_c, %conv28_4002_d] : memref<8x1x5x5xf32> 
    %conv28_4003_a = arith.constant 4 : index
    %conv28_4003_b = arith.constant 0 : index
    %conv28_4003_c = arith.constant 0 : index
    %conv28_4003_d = arith.constant 3 : index
    %conv28_4003_v = arith.constant -0.22573916614055634 : f32
    memref.store %conv28_4003_v, %0[%conv28_4003_a, %conv28_4003_b, %conv28_4003_c, %conv28_4003_d] : memref<8x1x5x5xf32> 
    %conv28_4004_a = arith.constant 4 : index
    %conv28_4004_b = arith.constant 0 : index
    %conv28_4004_c = arith.constant 0 : index
    %conv28_4004_d = arith.constant 4 : index
    %conv28_4004_v = arith.constant -0.16116438806056976 : f32
    memref.store %conv28_4004_v, %0[%conv28_4004_a, %conv28_4004_b, %conv28_4004_c, %conv28_4004_d] : memref<8x1x5x5xf32> 
    %conv28_4010_a = arith.constant 4 : index
    %conv28_4010_b = arith.constant 0 : index
    %conv28_4010_c = arith.constant 1 : index
    %conv28_4010_d = arith.constant 0 : index
    %conv28_4010_v = arith.constant 0.08904799818992615 : f32
    memref.store %conv28_4010_v, %0[%conv28_4010_a, %conv28_4010_b, %conv28_4010_c, %conv28_4010_d] : memref<8x1x5x5xf32> 
    %conv28_4011_a = arith.constant 4 : index
    %conv28_4011_b = arith.constant 0 : index
    %conv28_4011_c = arith.constant 1 : index
    %conv28_4011_d = arith.constant 1 : index
    %conv28_4011_v = arith.constant 0.2049759179353714 : f32
    memref.store %conv28_4011_v, %0[%conv28_4011_a, %conv28_4011_b, %conv28_4011_c, %conv28_4011_d] : memref<8x1x5x5xf32> 
    %conv28_4012_a = arith.constant 4 : index
    %conv28_4012_b = arith.constant 0 : index
    %conv28_4012_c = arith.constant 1 : index
    %conv28_4012_d = arith.constant 2 : index
    %conv28_4012_v = arith.constant -0.15634816884994507 : f32
    memref.store %conv28_4012_v, %0[%conv28_4012_a, %conv28_4012_b, %conv28_4012_c, %conv28_4012_d] : memref<8x1x5x5xf32> 
    %conv28_4013_a = arith.constant 4 : index
    %conv28_4013_b = arith.constant 0 : index
    %conv28_4013_c = arith.constant 1 : index
    %conv28_4013_d = arith.constant 3 : index
    %conv28_4013_v = arith.constant -0.22565391659736633 : f32
    memref.store %conv28_4013_v, %0[%conv28_4013_a, %conv28_4013_b, %conv28_4013_c, %conv28_4013_d] : memref<8x1x5x5xf32> 
    %conv28_4014_a = arith.constant 4 : index
    %conv28_4014_b = arith.constant 0 : index
    %conv28_4014_c = arith.constant 1 : index
    %conv28_4014_d = arith.constant 4 : index
    %conv28_4014_v = arith.constant -0.5620983242988586 : f32
    memref.store %conv28_4014_v, %0[%conv28_4014_a, %conv28_4014_b, %conv28_4014_c, %conv28_4014_d] : memref<8x1x5x5xf32> 
    %conv28_4020_a = arith.constant 4 : index
    %conv28_4020_b = arith.constant 0 : index
    %conv28_4020_c = arith.constant 2 : index
    %conv28_4020_d = arith.constant 0 : index
    %conv28_4020_v = arith.constant -0.06023457646369934 : f32
    memref.store %conv28_4020_v, %0[%conv28_4020_a, %conv28_4020_b, %conv28_4020_c, %conv28_4020_d] : memref<8x1x5x5xf32> 
    %conv28_4021_a = arith.constant 4 : index
    %conv28_4021_b = arith.constant 0 : index
    %conv28_4021_c = arith.constant 2 : index
    %conv28_4021_d = arith.constant 1 : index
    %conv28_4021_v = arith.constant 0.4104316830635071 : f32
    memref.store %conv28_4021_v, %0[%conv28_4021_a, %conv28_4021_b, %conv28_4021_c, %conv28_4021_d] : memref<8x1x5x5xf32> 
    %conv28_4022_a = arith.constant 4 : index
    %conv28_4022_b = arith.constant 0 : index
    %conv28_4022_c = arith.constant 2 : index
    %conv28_4022_d = arith.constant 2 : index
    %conv28_4022_v = arith.constant -0.014487497508525848 : f32
    memref.store %conv28_4022_v, %0[%conv28_4022_a, %conv28_4022_b, %conv28_4022_c, %conv28_4022_d] : memref<8x1x5x5xf32> 
    %conv28_4023_a = arith.constant 4 : index
    %conv28_4023_b = arith.constant 0 : index
    %conv28_4023_c = arith.constant 2 : index
    %conv28_4023_d = arith.constant 3 : index
    %conv28_4023_v = arith.constant -0.47492480278015137 : f32
    memref.store %conv28_4023_v, %0[%conv28_4023_a, %conv28_4023_b, %conv28_4023_c, %conv28_4023_d] : memref<8x1x5x5xf32> 
    %conv28_4024_a = arith.constant 4 : index
    %conv28_4024_b = arith.constant 0 : index
    %conv28_4024_c = arith.constant 2 : index
    %conv28_4024_d = arith.constant 4 : index
    %conv28_4024_v = arith.constant -0.5640554428100586 : f32
    memref.store %conv28_4024_v, %0[%conv28_4024_a, %conv28_4024_b, %conv28_4024_c, %conv28_4024_d] : memref<8x1x5x5xf32> 
    %conv28_4030_a = arith.constant 4 : index
    %conv28_4030_b = arith.constant 0 : index
    %conv28_4030_c = arith.constant 3 : index
    %conv28_4030_d = arith.constant 0 : index
    %conv28_4030_v = arith.constant -0.11556227505207062 : f32
    memref.store %conv28_4030_v, %0[%conv28_4030_a, %conv28_4030_b, %conv28_4030_c, %conv28_4030_d] : memref<8x1x5x5xf32> 
    %conv28_4031_a = arith.constant 4 : index
    %conv28_4031_b = arith.constant 0 : index
    %conv28_4031_c = arith.constant 3 : index
    %conv28_4031_d = arith.constant 1 : index
    %conv28_4031_v = arith.constant 0.1420968621969223 : f32
    memref.store %conv28_4031_v, %0[%conv28_4031_a, %conv28_4031_b, %conv28_4031_c, %conv28_4031_d] : memref<8x1x5x5xf32> 
    %conv28_4032_a = arith.constant 4 : index
    %conv28_4032_b = arith.constant 0 : index
    %conv28_4032_c = arith.constant 3 : index
    %conv28_4032_d = arith.constant 2 : index
    %conv28_4032_v = arith.constant 0.27673882246017456 : f32
    memref.store %conv28_4032_v, %0[%conv28_4032_a, %conv28_4032_b, %conv28_4032_c, %conv28_4032_d] : memref<8x1x5x5xf32> 
    %conv28_4033_a = arith.constant 4 : index
    %conv28_4033_b = arith.constant 0 : index
    %conv28_4033_c = arith.constant 3 : index
    %conv28_4033_d = arith.constant 3 : index
    %conv28_4033_v = arith.constant 0.04259895905852318 : f32
    memref.store %conv28_4033_v, %0[%conv28_4033_a, %conv28_4033_b, %conv28_4033_c, %conv28_4033_d] : memref<8x1x5x5xf32> 
    %conv28_4034_a = arith.constant 4 : index
    %conv28_4034_b = arith.constant 0 : index
    %conv28_4034_c = arith.constant 3 : index
    %conv28_4034_d = arith.constant 4 : index
    %conv28_4034_v = arith.constant -0.01154940016567707 : f32
    memref.store %conv28_4034_v, %0[%conv28_4034_a, %conv28_4034_b, %conv28_4034_c, %conv28_4034_d] : memref<8x1x5x5xf32> 
    %conv28_4040_a = arith.constant 4 : index
    %conv28_4040_b = arith.constant 0 : index
    %conv28_4040_c = arith.constant 4 : index
    %conv28_4040_d = arith.constant 0 : index
    %conv28_4040_v = arith.constant 0.009696257300674915 : f32
    memref.store %conv28_4040_v, %0[%conv28_4040_a, %conv28_4040_b, %conv28_4040_c, %conv28_4040_d] : memref<8x1x5x5xf32> 
    %conv28_4041_a = arith.constant 4 : index
    %conv28_4041_b = arith.constant 0 : index
    %conv28_4041_c = arith.constant 4 : index
    %conv28_4041_d = arith.constant 1 : index
    %conv28_4041_v = arith.constant 0.24611404538154602 : f32
    memref.store %conv28_4041_v, %0[%conv28_4041_a, %conv28_4041_b, %conv28_4041_c, %conv28_4041_d] : memref<8x1x5x5xf32> 
    %conv28_4042_a = arith.constant 4 : index
    %conv28_4042_b = arith.constant 0 : index
    %conv28_4042_c = arith.constant 4 : index
    %conv28_4042_d = arith.constant 2 : index
    %conv28_4042_v = arith.constant 0.625613272190094 : f32
    memref.store %conv28_4042_v, %0[%conv28_4042_a, %conv28_4042_b, %conv28_4042_c, %conv28_4042_d] : memref<8x1x5x5xf32> 
    %conv28_4043_a = arith.constant 4 : index
    %conv28_4043_b = arith.constant 0 : index
    %conv28_4043_c = arith.constant 4 : index
    %conv28_4043_d = arith.constant 3 : index
    %conv28_4043_v = arith.constant 0.683263897895813 : f32
    memref.store %conv28_4043_v, %0[%conv28_4043_a, %conv28_4043_b, %conv28_4043_c, %conv28_4043_d] : memref<8x1x5x5xf32> 
    %conv28_4044_a = arith.constant 4 : index
    %conv28_4044_b = arith.constant 0 : index
    %conv28_4044_c = arith.constant 4 : index
    %conv28_4044_d = arith.constant 4 : index
    %conv28_4044_v = arith.constant 0.23607052862644196 : f32
    memref.store %conv28_4044_v, %0[%conv28_4044_a, %conv28_4044_b, %conv28_4044_c, %conv28_4044_d] : memref<8x1x5x5xf32> 
    %conv28_5000_a = arith.constant 5 : index
    %conv28_5000_b = arith.constant 0 : index
    %conv28_5000_c = arith.constant 0 : index
    %conv28_5000_d = arith.constant 0 : index
    %conv28_5000_v = arith.constant -0.16604582965373993 : f32
    memref.store %conv28_5000_v, %0[%conv28_5000_a, %conv28_5000_b, %conv28_5000_c, %conv28_5000_d] : memref<8x1x5x5xf32> 
    %conv28_5001_a = arith.constant 5 : index
    %conv28_5001_b = arith.constant 0 : index
    %conv28_5001_c = arith.constant 0 : index
    %conv28_5001_d = arith.constant 1 : index
    %conv28_5001_v = arith.constant -0.3338145315647125 : f32
    memref.store %conv28_5001_v, %0[%conv28_5001_a, %conv28_5001_b, %conv28_5001_c, %conv28_5001_d] : memref<8x1x5x5xf32> 
    %conv28_5002_a = arith.constant 5 : index
    %conv28_5002_b = arith.constant 0 : index
    %conv28_5002_c = arith.constant 0 : index
    %conv28_5002_d = arith.constant 2 : index
    %conv28_5002_v = arith.constant -0.19119441509246826 : f32
    memref.store %conv28_5002_v, %0[%conv28_5002_a, %conv28_5002_b, %conv28_5002_c, %conv28_5002_d] : memref<8x1x5x5xf32> 
    %conv28_5003_a = arith.constant 5 : index
    %conv28_5003_b = arith.constant 0 : index
    %conv28_5003_c = arith.constant 0 : index
    %conv28_5003_d = arith.constant 3 : index
    %conv28_5003_v = arith.constant 0.05349813774228096 : f32
    memref.store %conv28_5003_v, %0[%conv28_5003_a, %conv28_5003_b, %conv28_5003_c, %conv28_5003_d] : memref<8x1x5x5xf32> 
    %conv28_5004_a = arith.constant 5 : index
    %conv28_5004_b = arith.constant 0 : index
    %conv28_5004_c = arith.constant 0 : index
    %conv28_5004_d = arith.constant 4 : index
    %conv28_5004_v = arith.constant 0.14157480001449585 : f32
    memref.store %conv28_5004_v, %0[%conv28_5004_a, %conv28_5004_b, %conv28_5004_c, %conv28_5004_d] : memref<8x1x5x5xf32> 
    %conv28_5010_a = arith.constant 5 : index
    %conv28_5010_b = arith.constant 0 : index
    %conv28_5010_c = arith.constant 1 : index
    %conv28_5010_d = arith.constant 0 : index
    %conv28_5010_v = arith.constant 0.18287110328674316 : f32
    memref.store %conv28_5010_v, %0[%conv28_5010_a, %conv28_5010_b, %conv28_5010_c, %conv28_5010_d] : memref<8x1x5x5xf32> 
    %conv28_5011_a = arith.constant 5 : index
    %conv28_5011_b = arith.constant 0 : index
    %conv28_5011_c = arith.constant 1 : index
    %conv28_5011_d = arith.constant 1 : index
    %conv28_5011_v = arith.constant -0.5480813980102539 : f32
    memref.store %conv28_5011_v, %0[%conv28_5011_a, %conv28_5011_b, %conv28_5011_c, %conv28_5011_d] : memref<8x1x5x5xf32> 
    %conv28_5012_a = arith.constant 5 : index
    %conv28_5012_b = arith.constant 0 : index
    %conv28_5012_c = arith.constant 1 : index
    %conv28_5012_d = arith.constant 2 : index
    %conv28_5012_v = arith.constant -0.7332809567451477 : f32
    memref.store %conv28_5012_v, %0[%conv28_5012_a, %conv28_5012_b, %conv28_5012_c, %conv28_5012_d] : memref<8x1x5x5xf32> 
    %conv28_5013_a = arith.constant 5 : index
    %conv28_5013_b = arith.constant 0 : index
    %conv28_5013_c = arith.constant 1 : index
    %conv28_5013_d = arith.constant 3 : index
    %conv28_5013_v = arith.constant -0.58826744556427 : f32
    memref.store %conv28_5013_v, %0[%conv28_5013_a, %conv28_5013_b, %conv28_5013_c, %conv28_5013_d] : memref<8x1x5x5xf32> 
    %conv28_5014_a = arith.constant 5 : index
    %conv28_5014_b = arith.constant 0 : index
    %conv28_5014_c = arith.constant 1 : index
    %conv28_5014_d = arith.constant 4 : index
    %conv28_5014_v = arith.constant -0.3842240273952484 : f32
    memref.store %conv28_5014_v, %0[%conv28_5014_a, %conv28_5014_b, %conv28_5014_c, %conv28_5014_d] : memref<8x1x5x5xf32> 
    %conv28_5020_a = arith.constant 5 : index
    %conv28_5020_b = arith.constant 0 : index
    %conv28_5020_c = arith.constant 2 : index
    %conv28_5020_d = arith.constant 0 : index
    %conv28_5020_v = arith.constant 0.540283739566803 : f32
    memref.store %conv28_5020_v, %0[%conv28_5020_a, %conv28_5020_b, %conv28_5020_c, %conv28_5020_d] : memref<8x1x5x5xf32> 
    %conv28_5021_a = arith.constant 5 : index
    %conv28_5021_b = arith.constant 0 : index
    %conv28_5021_c = arith.constant 2 : index
    %conv28_5021_d = arith.constant 1 : index
    %conv28_5021_v = arith.constant 0.3461269736289978 : f32
    memref.store %conv28_5021_v, %0[%conv28_5021_a, %conv28_5021_b, %conv28_5021_c, %conv28_5021_d] : memref<8x1x5x5xf32> 
    %conv28_5022_a = arith.constant 5 : index
    %conv28_5022_b = arith.constant 0 : index
    %conv28_5022_c = arith.constant 2 : index
    %conv28_5022_d = arith.constant 2 : index
    %conv28_5022_v = arith.constant -0.25229349732398987 : f32
    memref.store %conv28_5022_v, %0[%conv28_5022_a, %conv28_5022_b, %conv28_5022_c, %conv28_5022_d] : memref<8x1x5x5xf32> 
    %conv28_5023_a = arith.constant 5 : index
    %conv28_5023_b = arith.constant 0 : index
    %conv28_5023_c = arith.constant 2 : index
    %conv28_5023_d = arith.constant 3 : index
    %conv28_5023_v = arith.constant -0.3465349078178406 : f32
    memref.store %conv28_5023_v, %0[%conv28_5023_a, %conv28_5023_b, %conv28_5023_c, %conv28_5023_d] : memref<8x1x5x5xf32> 
    %conv28_5024_a = arith.constant 5 : index
    %conv28_5024_b = arith.constant 0 : index
    %conv28_5024_c = arith.constant 2 : index
    %conv28_5024_d = arith.constant 4 : index
    %conv28_5024_v = arith.constant -0.21091517806053162 : f32
    memref.store %conv28_5024_v, %0[%conv28_5024_a, %conv28_5024_b, %conv28_5024_c, %conv28_5024_d] : memref<8x1x5x5xf32> 
    %conv28_5030_a = arith.constant 5 : index
    %conv28_5030_b = arith.constant 0 : index
    %conv28_5030_c = arith.constant 3 : index
    %conv28_5030_d = arith.constant 0 : index
    %conv28_5030_v = arith.constant 0.22015060484409332 : f32
    memref.store %conv28_5030_v, %0[%conv28_5030_a, %conv28_5030_b, %conv28_5030_c, %conv28_5030_d] : memref<8x1x5x5xf32> 
    %conv28_5031_a = arith.constant 5 : index
    %conv28_5031_b = arith.constant 0 : index
    %conv28_5031_c = arith.constant 3 : index
    %conv28_5031_d = arith.constant 1 : index
    %conv28_5031_v = arith.constant 0.6589154601097107 : f32
    memref.store %conv28_5031_v, %0[%conv28_5031_a, %conv28_5031_b, %conv28_5031_c, %conv28_5031_d] : memref<8x1x5x5xf32> 
    %conv28_5032_a = arith.constant 5 : index
    %conv28_5032_b = arith.constant 0 : index
    %conv28_5032_c = arith.constant 3 : index
    %conv28_5032_d = arith.constant 2 : index
    %conv28_5032_v = arith.constant 0.3647841811180115 : f32
    memref.store %conv28_5032_v, %0[%conv28_5032_a, %conv28_5032_b, %conv28_5032_c, %conv28_5032_d] : memref<8x1x5x5xf32> 
    %conv28_5033_a = arith.constant 5 : index
    %conv28_5033_b = arith.constant 0 : index
    %conv28_5033_c = arith.constant 3 : index
    %conv28_5033_d = arith.constant 3 : index
    %conv28_5033_v = arith.constant 0.12937375903129578 : f32
    memref.store %conv28_5033_v, %0[%conv28_5033_a, %conv28_5033_b, %conv28_5033_c, %conv28_5033_d] : memref<8x1x5x5xf32> 
    %conv28_5034_a = arith.constant 5 : index
    %conv28_5034_b = arith.constant 0 : index
    %conv28_5034_c = arith.constant 3 : index
    %conv28_5034_d = arith.constant 4 : index
    %conv28_5034_v = arith.constant -0.10955952107906342 : f32
    memref.store %conv28_5034_v, %0[%conv28_5034_a, %conv28_5034_b, %conv28_5034_c, %conv28_5034_d] : memref<8x1x5x5xf32> 
    %conv28_5040_a = arith.constant 5 : index
    %conv28_5040_b = arith.constant 0 : index
    %conv28_5040_c = arith.constant 4 : index
    %conv28_5040_d = arith.constant 0 : index
    %conv28_5040_v = arith.constant 0.060226935893297195 : f32
    memref.store %conv28_5040_v, %0[%conv28_5040_a, %conv28_5040_b, %conv28_5040_c, %conv28_5040_d] : memref<8x1x5x5xf32> 
    %conv28_5041_a = arith.constant 5 : index
    %conv28_5041_b = arith.constant 0 : index
    %conv28_5041_c = arith.constant 4 : index
    %conv28_5041_d = arith.constant 1 : index
    %conv28_5041_v = arith.constant 0.3028530776500702 : f32
    memref.store %conv28_5041_v, %0[%conv28_5041_a, %conv28_5041_b, %conv28_5041_c, %conv28_5041_d] : memref<8x1x5x5xf32> 
    %conv28_5042_a = arith.constant 5 : index
    %conv28_5042_b = arith.constant 0 : index
    %conv28_5042_c = arith.constant 4 : index
    %conv28_5042_d = arith.constant 2 : index
    %conv28_5042_v = arith.constant 0.23698604106903076 : f32
    memref.store %conv28_5042_v, %0[%conv28_5042_a, %conv28_5042_b, %conv28_5042_c, %conv28_5042_d] : memref<8x1x5x5xf32> 
    %conv28_5043_a = arith.constant 5 : index
    %conv28_5043_b = arith.constant 0 : index
    %conv28_5043_c = arith.constant 4 : index
    %conv28_5043_d = arith.constant 3 : index
    %conv28_5043_v = arith.constant 0.46915197372436523 : f32
    memref.store %conv28_5043_v, %0[%conv28_5043_a, %conv28_5043_b, %conv28_5043_c, %conv28_5043_d] : memref<8x1x5x5xf32> 
    %conv28_5044_a = arith.constant 5 : index
    %conv28_5044_b = arith.constant 0 : index
    %conv28_5044_c = arith.constant 4 : index
    %conv28_5044_d = arith.constant 4 : index
    %conv28_5044_v = arith.constant 0.22329305112361908 : f32
    memref.store %conv28_5044_v, %0[%conv28_5044_a, %conv28_5044_b, %conv28_5044_c, %conv28_5044_d] : memref<8x1x5x5xf32> 
    %conv28_6000_a = arith.constant 6 : index
    %conv28_6000_b = arith.constant 0 : index
    %conv28_6000_c = arith.constant 0 : index
    %conv28_6000_d = arith.constant 0 : index
    %conv28_6000_v = arith.constant 0.09797149151563644 : f32
    memref.store %conv28_6000_v, %0[%conv28_6000_a, %conv28_6000_b, %conv28_6000_c, %conv28_6000_d] : memref<8x1x5x5xf32> 
    %conv28_6001_a = arith.constant 6 : index
    %conv28_6001_b = arith.constant 0 : index
    %conv28_6001_c = arith.constant 0 : index
    %conv28_6001_d = arith.constant 1 : index
    %conv28_6001_v = arith.constant 0.5594847202301025 : f32
    memref.store %conv28_6001_v, %0[%conv28_6001_a, %conv28_6001_b, %conv28_6001_c, %conv28_6001_d] : memref<8x1x5x5xf32> 
    %conv28_6002_a = arith.constant 6 : index
    %conv28_6002_b = arith.constant 0 : index
    %conv28_6002_c = arith.constant 0 : index
    %conv28_6002_d = arith.constant 2 : index
    %conv28_6002_v = arith.constant -0.21443209052085876 : f32
    memref.store %conv28_6002_v, %0[%conv28_6002_a, %conv28_6002_b, %conv28_6002_c, %conv28_6002_d] : memref<8x1x5x5xf32> 
    %conv28_6003_a = arith.constant 6 : index
    %conv28_6003_b = arith.constant 0 : index
    %conv28_6003_c = arith.constant 0 : index
    %conv28_6003_d = arith.constant 3 : index
    %conv28_6003_v = arith.constant -0.4576771557331085 : f32
    memref.store %conv28_6003_v, %0[%conv28_6003_a, %conv28_6003_b, %conv28_6003_c, %conv28_6003_d] : memref<8x1x5x5xf32> 
    %conv28_6004_a = arith.constant 6 : index
    %conv28_6004_b = arith.constant 0 : index
    %conv28_6004_c = arith.constant 0 : index
    %conv28_6004_d = arith.constant 4 : index
    %conv28_6004_v = arith.constant -0.2118259072303772 : f32
    memref.store %conv28_6004_v, %0[%conv28_6004_a, %conv28_6004_b, %conv28_6004_c, %conv28_6004_d] : memref<8x1x5x5xf32> 
    %conv28_6010_a = arith.constant 6 : index
    %conv28_6010_b = arith.constant 0 : index
    %conv28_6010_c = arith.constant 1 : index
    %conv28_6010_d = arith.constant 0 : index
    %conv28_6010_v = arith.constant 0.36440980434417725 : f32
    memref.store %conv28_6010_v, %0[%conv28_6010_a, %conv28_6010_b, %conv28_6010_c, %conv28_6010_d] : memref<8x1x5x5xf32> 
    %conv28_6011_a = arith.constant 6 : index
    %conv28_6011_b = arith.constant 0 : index
    %conv28_6011_c = arith.constant 1 : index
    %conv28_6011_d = arith.constant 1 : index
    %conv28_6011_v = arith.constant 0.48706260323524475 : f32
    memref.store %conv28_6011_v, %0[%conv28_6011_a, %conv28_6011_b, %conv28_6011_c, %conv28_6011_d] : memref<8x1x5x5xf32> 
    %conv28_6012_a = arith.constant 6 : index
    %conv28_6012_b = arith.constant 0 : index
    %conv28_6012_c = arith.constant 1 : index
    %conv28_6012_d = arith.constant 2 : index
    %conv28_6012_v = arith.constant -0.4076792597770691 : f32
    memref.store %conv28_6012_v, %0[%conv28_6012_a, %conv28_6012_b, %conv28_6012_c, %conv28_6012_d] : memref<8x1x5x5xf32> 
    %conv28_6013_a = arith.constant 6 : index
    %conv28_6013_b = arith.constant 0 : index
    %conv28_6013_c = arith.constant 1 : index
    %conv28_6013_d = arith.constant 3 : index
    %conv28_6013_v = arith.constant -0.4292023479938507 : f32
    memref.store %conv28_6013_v, %0[%conv28_6013_a, %conv28_6013_b, %conv28_6013_c, %conv28_6013_d] : memref<8x1x5x5xf32> 
    %conv28_6014_a = arith.constant 6 : index
    %conv28_6014_b = arith.constant 0 : index
    %conv28_6014_c = arith.constant 1 : index
    %conv28_6014_d = arith.constant 4 : index
    %conv28_6014_v = arith.constant -0.2475433498620987 : f32
    memref.store %conv28_6014_v, %0[%conv28_6014_a, %conv28_6014_b, %conv28_6014_c, %conv28_6014_d] : memref<8x1x5x5xf32> 
    %conv28_6020_a = arith.constant 6 : index
    %conv28_6020_b = arith.constant 0 : index
    %conv28_6020_c = arith.constant 2 : index
    %conv28_6020_d = arith.constant 0 : index
    %conv28_6020_v = arith.constant 0.4149287939071655 : f32
    memref.store %conv28_6020_v, %0[%conv28_6020_a, %conv28_6020_b, %conv28_6020_c, %conv28_6020_d] : memref<8x1x5x5xf32> 
    %conv28_6021_a = arith.constant 6 : index
    %conv28_6021_b = arith.constant 0 : index
    %conv28_6021_c = arith.constant 2 : index
    %conv28_6021_d = arith.constant 1 : index
    %conv28_6021_v = arith.constant 0.30001330375671387 : f32
    memref.store %conv28_6021_v, %0[%conv28_6021_a, %conv28_6021_b, %conv28_6021_c, %conv28_6021_d] : memref<8x1x5x5xf32> 
    %conv28_6022_a = arith.constant 6 : index
    %conv28_6022_b = arith.constant 0 : index
    %conv28_6022_c = arith.constant 2 : index
    %conv28_6022_d = arith.constant 2 : index
    %conv28_6022_v = arith.constant -0.45789340138435364 : f32
    memref.store %conv28_6022_v, %0[%conv28_6022_a, %conv28_6022_b, %conv28_6022_c, %conv28_6022_d] : memref<8x1x5x5xf32> 
    %conv28_6023_a = arith.constant 6 : index
    %conv28_6023_b = arith.constant 0 : index
    %conv28_6023_c = arith.constant 2 : index
    %conv28_6023_d = arith.constant 3 : index
    %conv28_6023_v = arith.constant -0.30391550064086914 : f32
    memref.store %conv28_6023_v, %0[%conv28_6023_a, %conv28_6023_b, %conv28_6023_c, %conv28_6023_d] : memref<8x1x5x5xf32> 
    %conv28_6024_a = arith.constant 6 : index
    %conv28_6024_b = arith.constant 0 : index
    %conv28_6024_c = arith.constant 2 : index
    %conv28_6024_d = arith.constant 4 : index
    %conv28_6024_v = arith.constant -0.08953923732042313 : f32
    memref.store %conv28_6024_v, %0[%conv28_6024_a, %conv28_6024_b, %conv28_6024_c, %conv28_6024_d] : memref<8x1x5x5xf32> 
    %conv28_6030_a = arith.constant 6 : index
    %conv28_6030_b = arith.constant 0 : index
    %conv28_6030_c = arith.constant 3 : index
    %conv28_6030_d = arith.constant 0 : index
    %conv28_6030_v = arith.constant 0.2780548334121704 : f32
    memref.store %conv28_6030_v, %0[%conv28_6030_a, %conv28_6030_b, %conv28_6030_c, %conv28_6030_d] : memref<8x1x5x5xf32> 
    %conv28_6031_a = arith.constant 6 : index
    %conv28_6031_b = arith.constant 0 : index
    %conv28_6031_c = arith.constant 3 : index
    %conv28_6031_d = arith.constant 1 : index
    %conv28_6031_v = arith.constant 0.11443112045526505 : f32
    memref.store %conv28_6031_v, %0[%conv28_6031_a, %conv28_6031_b, %conv28_6031_c, %conv28_6031_d] : memref<8x1x5x5xf32> 
    %conv28_6032_a = arith.constant 6 : index
    %conv28_6032_b = arith.constant 0 : index
    %conv28_6032_c = arith.constant 3 : index
    %conv28_6032_d = arith.constant 2 : index
    %conv28_6032_v = arith.constant -0.17231403291225433 : f32
    memref.store %conv28_6032_v, %0[%conv28_6032_a, %conv28_6032_b, %conv28_6032_c, %conv28_6032_d] : memref<8x1x5x5xf32> 
    %conv28_6033_a = arith.constant 6 : index
    %conv28_6033_b = arith.constant 0 : index
    %conv28_6033_c = arith.constant 3 : index
    %conv28_6033_d = arith.constant 3 : index
    %conv28_6033_v = arith.constant -0.3516780436038971 : f32
    memref.store %conv28_6033_v, %0[%conv28_6033_a, %conv28_6033_b, %conv28_6033_c, %conv28_6033_d] : memref<8x1x5x5xf32> 
    %conv28_6034_a = arith.constant 6 : index
    %conv28_6034_b = arith.constant 0 : index
    %conv28_6034_c = arith.constant 3 : index
    %conv28_6034_d = arith.constant 4 : index
    %conv28_6034_v = arith.constant -0.15202881395816803 : f32
    memref.store %conv28_6034_v, %0[%conv28_6034_a, %conv28_6034_b, %conv28_6034_c, %conv28_6034_d] : memref<8x1x5x5xf32> 
    %conv28_6040_a = arith.constant 6 : index
    %conv28_6040_b = arith.constant 0 : index
    %conv28_6040_c = arith.constant 4 : index
    %conv28_6040_d = arith.constant 0 : index
    %conv28_6040_v = arith.constant 0.34867072105407715 : f32
    memref.store %conv28_6040_v, %0[%conv28_6040_a, %conv28_6040_b, %conv28_6040_c, %conv28_6040_d] : memref<8x1x5x5xf32> 
    %conv28_6041_a = arith.constant 6 : index
    %conv28_6041_b = arith.constant 0 : index
    %conv28_6041_c = arith.constant 4 : index
    %conv28_6041_d = arith.constant 1 : index
    %conv28_6041_v = arith.constant 0.185796856880188 : f32
    memref.store %conv28_6041_v, %0[%conv28_6041_a, %conv28_6041_b, %conv28_6041_c, %conv28_6041_d] : memref<8x1x5x5xf32> 
    %conv28_6042_a = arith.constant 6 : index
    %conv28_6042_b = arith.constant 0 : index
    %conv28_6042_c = arith.constant 4 : index
    %conv28_6042_d = arith.constant 2 : index
    %conv28_6042_v = arith.constant 0.0708867609500885 : f32
    memref.store %conv28_6042_v, %0[%conv28_6042_a, %conv28_6042_b, %conv28_6042_c, %conv28_6042_d] : memref<8x1x5x5xf32> 
    %conv28_6043_a = arith.constant 6 : index
    %conv28_6043_b = arith.constant 0 : index
    %conv28_6043_c = arith.constant 4 : index
    %conv28_6043_d = arith.constant 3 : index
    %conv28_6043_v = arith.constant 0.13417653739452362 : f32
    memref.store %conv28_6043_v, %0[%conv28_6043_a, %conv28_6043_b, %conv28_6043_c, %conv28_6043_d] : memref<8x1x5x5xf32> 
    %conv28_6044_a = arith.constant 6 : index
    %conv28_6044_b = arith.constant 0 : index
    %conv28_6044_c = arith.constant 4 : index
    %conv28_6044_d = arith.constant 4 : index
    %conv28_6044_v = arith.constant -0.04618285596370697 : f32
    memref.store %conv28_6044_v, %0[%conv28_6044_a, %conv28_6044_b, %conv28_6044_c, %conv28_6044_d] : memref<8x1x5x5xf32> 
    %conv28_7000_a = arith.constant 7 : index
    %conv28_7000_b = arith.constant 0 : index
    %conv28_7000_c = arith.constant 0 : index
    %conv28_7000_d = arith.constant 0 : index
    %conv28_7000_v = arith.constant -0.02208573743700981 : f32
    memref.store %conv28_7000_v, %0[%conv28_7000_a, %conv28_7000_b, %conv28_7000_c, %conv28_7000_d] : memref<8x1x5x5xf32> 
    %conv28_7001_a = arith.constant 7 : index
    %conv28_7001_b = arith.constant 0 : index
    %conv28_7001_c = arith.constant 0 : index
    %conv28_7001_d = arith.constant 1 : index
    %conv28_7001_v = arith.constant -0.13200485706329346 : f32
    memref.store %conv28_7001_v, %0[%conv28_7001_a, %conv28_7001_b, %conv28_7001_c, %conv28_7001_d] : memref<8x1x5x5xf32> 
    %conv28_7002_a = arith.constant 7 : index
    %conv28_7002_b = arith.constant 0 : index
    %conv28_7002_c = arith.constant 0 : index
    %conv28_7002_d = arith.constant 2 : index
    %conv28_7002_v = arith.constant 0.0916861891746521 : f32
    memref.store %conv28_7002_v, %0[%conv28_7002_a, %conv28_7002_b, %conv28_7002_c, %conv28_7002_d] : memref<8x1x5x5xf32> 
    %conv28_7003_a = arith.constant 7 : index
    %conv28_7003_b = arith.constant 0 : index
    %conv28_7003_c = arith.constant 0 : index
    %conv28_7003_d = arith.constant 3 : index
    %conv28_7003_v = arith.constant 0.23160681128501892 : f32
    memref.store %conv28_7003_v, %0[%conv28_7003_a, %conv28_7003_b, %conv28_7003_c, %conv28_7003_d] : memref<8x1x5x5xf32> 
    %conv28_7004_a = arith.constant 7 : index
    %conv28_7004_b = arith.constant 0 : index
    %conv28_7004_c = arith.constant 0 : index
    %conv28_7004_d = arith.constant 4 : index
    %conv28_7004_v = arith.constant 0.33974218368530273 : f32
    memref.store %conv28_7004_v, %0[%conv28_7004_a, %conv28_7004_b, %conv28_7004_c, %conv28_7004_d] : memref<8x1x5x5xf32> 
    %conv28_7010_a = arith.constant 7 : index
    %conv28_7010_b = arith.constant 0 : index
    %conv28_7010_c = arith.constant 1 : index
    %conv28_7010_d = arith.constant 0 : index
    %conv28_7010_v = arith.constant 0.16504956781864166 : f32
    memref.store %conv28_7010_v, %0[%conv28_7010_a, %conv28_7010_b, %conv28_7010_c, %conv28_7010_d] : memref<8x1x5x5xf32> 
    %conv28_7011_a = arith.constant 7 : index
    %conv28_7011_b = arith.constant 0 : index
    %conv28_7011_c = arith.constant 1 : index
    %conv28_7011_d = arith.constant 1 : index
    %conv28_7011_v = arith.constant 0.3764834702014923 : f32
    memref.store %conv28_7011_v, %0[%conv28_7011_a, %conv28_7011_b, %conv28_7011_c, %conv28_7011_d] : memref<8x1x5x5xf32> 
    %conv28_7012_a = arith.constant 7 : index
    %conv28_7012_b = arith.constant 0 : index
    %conv28_7012_c = arith.constant 1 : index
    %conv28_7012_d = arith.constant 2 : index
    %conv28_7012_v = arith.constant 0.19502994418144226 : f32
    memref.store %conv28_7012_v, %0[%conv28_7012_a, %conv28_7012_b, %conv28_7012_c, %conv28_7012_d] : memref<8x1x5x5xf32> 
    %conv28_7013_a = arith.constant 7 : index
    %conv28_7013_b = arith.constant 0 : index
    %conv28_7013_c = arith.constant 1 : index
    %conv28_7013_d = arith.constant 3 : index
    %conv28_7013_v = arith.constant 0.3151701092720032 : f32
    memref.store %conv28_7013_v, %0[%conv28_7013_a, %conv28_7013_b, %conv28_7013_c, %conv28_7013_d] : memref<8x1x5x5xf32> 
    %conv28_7014_a = arith.constant 7 : index
    %conv28_7014_b = arith.constant 0 : index
    %conv28_7014_c = arith.constant 1 : index
    %conv28_7014_d = arith.constant 4 : index
    %conv28_7014_v = arith.constant 0.5671406984329224 : f32
    memref.store %conv28_7014_v, %0[%conv28_7014_a, %conv28_7014_b, %conv28_7014_c, %conv28_7014_d] : memref<8x1x5x5xf32> 
    %conv28_7020_a = arith.constant 7 : index
    %conv28_7020_b = arith.constant 0 : index
    %conv28_7020_c = arith.constant 2 : index
    %conv28_7020_d = arith.constant 0 : index
    %conv28_7020_v = arith.constant -0.11800449341535568 : f32
    memref.store %conv28_7020_v, %0[%conv28_7020_a, %conv28_7020_b, %conv28_7020_c, %conv28_7020_d] : memref<8x1x5x5xf32> 
    %conv28_7021_a = arith.constant 7 : index
    %conv28_7021_b = arith.constant 0 : index
    %conv28_7021_c = arith.constant 2 : index
    %conv28_7021_d = arith.constant 1 : index
    %conv28_7021_v = arith.constant 0.19598188996315002 : f32
    memref.store %conv28_7021_v, %0[%conv28_7021_a, %conv28_7021_b, %conv28_7021_c, %conv28_7021_d] : memref<8x1x5x5xf32> 
    %conv28_7022_a = arith.constant 7 : index
    %conv28_7022_b = arith.constant 0 : index
    %conv28_7022_c = arith.constant 2 : index
    %conv28_7022_d = arith.constant 2 : index
    %conv28_7022_v = arith.constant 0.1325552612543106 : f32
    memref.store %conv28_7022_v, %0[%conv28_7022_a, %conv28_7022_b, %conv28_7022_c, %conv28_7022_d] : memref<8x1x5x5xf32> 
    %conv28_7023_a = arith.constant 7 : index
    %conv28_7023_b = arith.constant 0 : index
    %conv28_7023_c = arith.constant 2 : index
    %conv28_7023_d = arith.constant 3 : index
    %conv28_7023_v = arith.constant 0.047790516167879105 : f32
    memref.store %conv28_7023_v, %0[%conv28_7023_a, %conv28_7023_b, %conv28_7023_c, %conv28_7023_d] : memref<8x1x5x5xf32> 
    %conv28_7024_a = arith.constant 7 : index
    %conv28_7024_b = arith.constant 0 : index
    %conv28_7024_c = arith.constant 2 : index
    %conv28_7024_d = arith.constant 4 : index
    %conv28_7024_v = arith.constant 0.13364340364933014 : f32
    memref.store %conv28_7024_v, %0[%conv28_7024_a, %conv28_7024_b, %conv28_7024_c, %conv28_7024_d] : memref<8x1x5x5xf32> 
    %conv28_7030_a = arith.constant 7 : index
    %conv28_7030_b = arith.constant 0 : index
    %conv28_7030_c = arith.constant 3 : index
    %conv28_7030_d = arith.constant 0 : index
    %conv28_7030_v = arith.constant 0.028376566246151924 : f32
    memref.store %conv28_7030_v, %0[%conv28_7030_a, %conv28_7030_b, %conv28_7030_c, %conv28_7030_d] : memref<8x1x5x5xf32> 
    %conv28_7031_a = arith.constant 7 : index
    %conv28_7031_b = arith.constant 0 : index
    %conv28_7031_c = arith.constant 3 : index
    %conv28_7031_d = arith.constant 1 : index
    %conv28_7031_v = arith.constant -0.13915082812309265 : f32
    memref.store %conv28_7031_v, %0[%conv28_7031_a, %conv28_7031_b, %conv28_7031_c, %conv28_7031_d] : memref<8x1x5x5xf32> 
    %conv28_7032_a = arith.constant 7 : index
    %conv28_7032_b = arith.constant 0 : index
    %conv28_7032_c = arith.constant 3 : index
    %conv28_7032_d = arith.constant 2 : index
    %conv28_7032_v = arith.constant -0.12077710032463074 : f32
    memref.store %conv28_7032_v, %0[%conv28_7032_a, %conv28_7032_b, %conv28_7032_c, %conv28_7032_d] : memref<8x1x5x5xf32> 
    %conv28_7033_a = arith.constant 7 : index
    %conv28_7033_b = arith.constant 0 : index
    %conv28_7033_c = arith.constant 3 : index
    %conv28_7033_d = arith.constant 3 : index
    %conv28_7033_v = arith.constant -0.19753223657608032 : f32
    memref.store %conv28_7033_v, %0[%conv28_7033_a, %conv28_7033_b, %conv28_7033_c, %conv28_7033_d] : memref<8x1x5x5xf32> 
    %conv28_7034_a = arith.constant 7 : index
    %conv28_7034_b = arith.constant 0 : index
    %conv28_7034_c = arith.constant 3 : index
    %conv28_7034_d = arith.constant 4 : index
    %conv28_7034_v = arith.constant -0.5022867918014526 : f32
    memref.store %conv28_7034_v, %0[%conv28_7034_a, %conv28_7034_b, %conv28_7034_c, %conv28_7034_d] : memref<8x1x5x5xf32> 
    %conv28_7040_a = arith.constant 7 : index
    %conv28_7040_b = arith.constant 0 : index
    %conv28_7040_c = arith.constant 4 : index
    %conv28_7040_d = arith.constant 0 : index
    %conv28_7040_v = arith.constant -0.035823289304971695 : f32
    memref.store %conv28_7040_v, %0[%conv28_7040_a, %conv28_7040_b, %conv28_7040_c, %conv28_7040_d] : memref<8x1x5x5xf32> 
    %conv28_7041_a = arith.constant 7 : index
    %conv28_7041_b = arith.constant 0 : index
    %conv28_7041_c = arith.constant 4 : index
    %conv28_7041_d = arith.constant 1 : index
    %conv28_7041_v = arith.constant -0.1898280829191208 : f32
    memref.store %conv28_7041_v, %0[%conv28_7041_a, %conv28_7041_b, %conv28_7041_c, %conv28_7041_d] : memref<8x1x5x5xf32> 
    %conv28_7042_a = arith.constant 7 : index
    %conv28_7042_b = arith.constant 0 : index
    %conv28_7042_c = arith.constant 4 : index
    %conv28_7042_d = arith.constant 2 : index
    %conv28_7042_v = arith.constant -0.4275367856025696 : f32
    memref.store %conv28_7042_v, %0[%conv28_7042_a, %conv28_7042_b, %conv28_7042_c, %conv28_7042_d] : memref<8x1x5x5xf32> 
    %conv28_7043_a = arith.constant 7 : index
    %conv28_7043_b = arith.constant 0 : index
    %conv28_7043_c = arith.constant 4 : index
    %conv28_7043_d = arith.constant 3 : index
    %conv28_7043_v = arith.constant -0.2847483158111572 : f32
    memref.store %conv28_7043_v, %0[%conv28_7043_a, %conv28_7043_b, %conv28_7043_c, %conv28_7043_d] : memref<8x1x5x5xf32> 
    %conv28_7044_a = arith.constant 7 : index
    %conv28_7044_b = arith.constant 0 : index
    %conv28_7044_c = arith.constant 4 : index
    %conv28_7044_d = arith.constant 4 : index
    %conv28_7044_v = arith.constant -0.19034995138645172 : f32
    memref.store %conv28_7044_v, %0[%conv28_7044_a, %conv28_7044_b, %conv28_7044_c, %conv28_7044_d] : memref<8x1x5x5xf32> 
    %arg_0_0_0_0_a = arith.constant 0 : index
    %arg_0_0_0_0_b = arith.constant 0 : index
    %arg_0_0_0_0_c = arith.constant 0 : index
    %arg_0_0_0_0_d = arith.constant 0 : index
    %arg_0_0_0_0_v = arith.constant -0.4242129623889923 : f32
    memref.store %arg_0_0_0_0_v, %arg0[%arg_0_0_0_0_a, %arg_0_0_0_0_b, %arg_0_0_0_0_c, %arg_0_0_0_0_d] : memref<1x1x28x28xf32> 
    %arg_0_0_0_1_a = arith.constant 0 : index
    %arg_0_0_0_1_b = arith.constant 0 : index
    %arg_0_0_0_1_c = arith.constant 0 : index
    %arg_0_0_0_1_d = arith.constant 1 : index
    %arg_0_0_0_1_v = arith.constant -0.4242129623889923 : f32
    memref.store %arg_0_0_0_1_v, %arg0[%arg_0_0_0_1_a, %arg_0_0_0_1_b, %arg_0_0_0_1_c, %arg_0_0_0_1_d] : memref<1x1x28x28xf32> 
    %arg_0_0_0_2_a = arith.constant 0 : index
    %arg_0_0_0_2_b = arith.constant 0 : index
    %arg_0_0_0_2_c = arith.constant 0 : index
    %arg_0_0_0_2_d = arith.constant 2 : index
    %arg_0_0_0_2_v = arith.constant -0.4242129623889923 : f32
    memref.store %arg_0_0_0_2_v, %arg0[%arg_0_0_0_2_a, %arg_0_0_0_2_b, %arg_0_0_0_2_c, %arg_0_0_0_2_d] : memref<1x1x28x28xf32> 
    %arg_0_0_0_3_a = arith.constant 0 : index
    %arg_0_0_0_3_b = arith.constant 0 : index
    %arg_0_0_0_3_c = arith.constant 0 : index
    %arg_0_0_0_3_d = arith.constant 3 : index
    %arg_0_0_0_3_v = arith.constant -0.4242129623889923 : f32
    memref.store %arg_0_0_0_3_v, %arg0[%arg_0_0_0_3_a, %arg_0_0_0_3_b, %arg_0_0_0_3_c, %arg_0_0_0_3_d] : memref<1x1x28x28xf32> 
    %arg_0_0_0_4_a = arith.constant 0 : index
    %arg_0_0_0_4_b = arith.constant 0 : index
    %arg_0_0_0_4_c = arith.constant 0 : index
    %arg_0_0_0_4_d = arith.constant 4 : index
    %arg_0_0_0_4_v = arith.constant -0.4242129623889923 : f32
    memref.store %arg_0_0_0_4_v, %arg0[%arg_0_0_0_4_a, %arg_0_0_0_4_b, %arg_0_0_0_4_c, %arg_0_0_0_4_d] : memref<1x1x28x28xf32> 
    %arg_0_0_0_5_a = arith.constant 0 : index
    %arg_0_0_0_5_b = arith.constant 0 : index
    %arg_0_0_0_5_c = arith.constant 0 : index
    %arg_0_0_0_5_d = arith.constant 5 : index
    %arg_0_0_0_5_v = arith.constant -0.4242129623889923 : f32
    memref.store %arg_0_0_0_5_v, %arg0[%arg_0_0_0_5_a, %arg_0_0_0_5_b, %arg_0_0_0_5_c, %arg_0_0_0_5_d] : memref<1x1x28x28xf32> 
    %arg_0_0_0_6_a = arith.constant 0 : index
    %arg_0_0_0_6_b = arith.constant 0 : index
    %arg_0_0_0_6_c = arith.constant 0 : index
    %arg_0_0_0_6_d = arith.constant 6 : index
    %arg_0_0_0_6_v = arith.constant -0.4242129623889923 : f32
    memref.store %arg_0_0_0_6_v, %arg0[%arg_0_0_0_6_a, %arg_0_0_0_6_b, %arg_0_0_0_6_c, %arg_0_0_0_6_d] : memref<1x1x28x28xf32> 
    %arg_0_0_0_7_a = arith.constant 0 : index
    %arg_0_0_0_7_b = arith.constant 0 : index
    %arg_0_0_0_7_c = arith.constant 0 : index
    %arg_0_0_0_7_d = arith.constant 7 : index
    %arg_0_0_0_7_v = arith.constant -0.4242129623889923 : f32
    memref.store %arg_0_0_0_7_v, %arg0[%arg_0_0_0_7_a, %arg_0_0_0_7_b, %arg_0_0_0_7_c, %arg_0_0_0_7_d] : memref<1x1x28x28xf32> 
    %arg_0_0_0_8_a = arith.constant 0 : index
    %arg_0_0_0_8_b = arith.constant 0 : index
    %arg_0_0_0_8_c = arith.constant 0 : index
    %arg_0_0_0_8_d = arith.constant 8 : index
    %arg_0_0_0_8_v = arith.constant -0.4242129623889923 : f32
    memref.store %arg_0_0_0_8_v, %arg0[%arg_0_0_0_8_a, %arg_0_0_0_8_b, %arg_0_0_0_8_c, %arg_0_0_0_8_d] : memref<1x1x28x28xf32> 
    %arg_0_0_0_9_a = arith.constant 0 : index
    %arg_0_0_0_9_b = arith.constant 0 : index
    %arg_0_0_0_9_c = arith.constant 0 : index
    %arg_0_0_0_9_d = arith.constant 9 : index
    %arg_0_0_0_9_v = arith.constant -0.4242129623889923 : f32
    memref.store %arg_0_0_0_9_v, %arg0[%arg_0_0_0_9_a, %arg_0_0_0_9_b, %arg_0_0_0_9_c, %arg_0_0_0_9_d] : memref<1x1x28x28xf32> 
    %arg_0_0_0_10_a = arith.constant 0 : index
    %arg_0_0_0_10_b = arith.constant 0 : index
    %arg_0_0_0_10_c = arith.constant 0 : index
    %arg_0_0_0_10_d = arith.constant 10 : index
    %arg_0_0_0_10_v = arith.constant -0.4242129623889923 : f32
    memref.store %arg_0_0_0_10_v, %arg0[%arg_0_0_0_10_a, %arg_0_0_0_10_b, %arg_0_0_0_10_c, %arg_0_0_0_10_d] : memref<1x1x28x28xf32> 
    %arg_0_0_0_11_a = arith.constant 0 : index
    %arg_0_0_0_11_b = arith.constant 0 : index
    %arg_0_0_0_11_c = arith.constant 0 : index
    %arg_0_0_0_11_d = arith.constant 11 : index
    %arg_0_0_0_11_v = arith.constant -0.4242129623889923 : f32
    memref.store %arg_0_0_0_11_v, %arg0[%arg_0_0_0_11_a, %arg_0_0_0_11_b, %arg_0_0_0_11_c, %arg_0_0_0_11_d] : memref<1x1x28x28xf32> 
    %arg_0_0_0_12_a = arith.constant 0 : index
    %arg_0_0_0_12_b = arith.constant 0 : index
    %arg_0_0_0_12_c = arith.constant 0 : index
    %arg_0_0_0_12_d = arith.constant 12 : index
    %arg_0_0_0_12_v = arith.constant -0.4242129623889923 : f32
    memref.store %arg_0_0_0_12_v, %arg0[%arg_0_0_0_12_a, %arg_0_0_0_12_b, %arg_0_0_0_12_c, %arg_0_0_0_12_d] : memref<1x1x28x28xf32> 
    %arg_0_0_0_13_a = arith.constant 0 : index
    %arg_0_0_0_13_b = arith.constant 0 : index
    %arg_0_0_0_13_c = arith.constant 0 : index
    %arg_0_0_0_13_d = arith.constant 13 : index
    %arg_0_0_0_13_v = arith.constant -0.4242129623889923 : f32
    memref.store %arg_0_0_0_13_v, %arg0[%arg_0_0_0_13_a, %arg_0_0_0_13_b, %arg_0_0_0_13_c, %arg_0_0_0_13_d] : memref<1x1x28x28xf32> 
    %arg_0_0_0_14_a = arith.constant 0 : index
    %arg_0_0_0_14_b = arith.constant 0 : index
    %arg_0_0_0_14_c = arith.constant 0 : index
    %arg_0_0_0_14_d = arith.constant 14 : index
    %arg_0_0_0_14_v = arith.constant -0.4242129623889923 : f32
    memref.store %arg_0_0_0_14_v, %arg0[%arg_0_0_0_14_a, %arg_0_0_0_14_b, %arg_0_0_0_14_c, %arg_0_0_0_14_d] : memref<1x1x28x28xf32> 
    %arg_0_0_0_15_a = arith.constant 0 : index
    %arg_0_0_0_15_b = arith.constant 0 : index
    %arg_0_0_0_15_c = arith.constant 0 : index
    %arg_0_0_0_15_d = arith.constant 15 : index
    %arg_0_0_0_15_v = arith.constant -0.4242129623889923 : f32
    memref.store %arg_0_0_0_15_v, %arg0[%arg_0_0_0_15_a, %arg_0_0_0_15_b, %arg_0_0_0_15_c, %arg_0_0_0_15_d] : memref<1x1x28x28xf32> 
    %arg_0_0_0_16_a = arith.constant 0 : index
    %arg_0_0_0_16_b = arith.constant 0 : index
    %arg_0_0_0_16_c = arith.constant 0 : index
    %arg_0_0_0_16_d = arith.constant 16 : index
    %arg_0_0_0_16_v = arith.constant -0.4242129623889923 : f32
    memref.store %arg_0_0_0_16_v, %arg0[%arg_0_0_0_16_a, %arg_0_0_0_16_b, %arg_0_0_0_16_c, %arg_0_0_0_16_d] : memref<1x1x28x28xf32> 
    %arg_0_0_0_17_a = arith.constant 0 : index
    %arg_0_0_0_17_b = arith.constant 0 : index
    %arg_0_0_0_17_c = arith.constant 0 : index
    %arg_0_0_0_17_d = arith.constant 17 : index
    %arg_0_0_0_17_v = arith.constant -0.4242129623889923 : f32
    memref.store %arg_0_0_0_17_v, %arg0[%arg_0_0_0_17_a, %arg_0_0_0_17_b, %arg_0_0_0_17_c, %arg_0_0_0_17_d] : memref<1x1x28x28xf32> 
    %arg_0_0_0_18_a = arith.constant 0 : index
    %arg_0_0_0_18_b = arith.constant 0 : index
    %arg_0_0_0_18_c = arith.constant 0 : index
    %arg_0_0_0_18_d = arith.constant 18 : index
    %arg_0_0_0_18_v = arith.constant -0.4242129623889923 : f32
    memref.store %arg_0_0_0_18_v, %arg0[%arg_0_0_0_18_a, %arg_0_0_0_18_b, %arg_0_0_0_18_c, %arg_0_0_0_18_d] : memref<1x1x28x28xf32> 
    %arg_0_0_0_19_a = arith.constant 0 : index
    %arg_0_0_0_19_b = arith.constant 0 : index
    %arg_0_0_0_19_c = arith.constant 0 : index
    %arg_0_0_0_19_d = arith.constant 19 : index
    %arg_0_0_0_19_v = arith.constant -0.4242129623889923 : f32
    memref.store %arg_0_0_0_19_v, %arg0[%arg_0_0_0_19_a, %arg_0_0_0_19_b, %arg_0_0_0_19_c, %arg_0_0_0_19_d] : memref<1x1x28x28xf32> 
    %arg_0_0_0_20_a = arith.constant 0 : index
    %arg_0_0_0_20_b = arith.constant 0 : index
    %arg_0_0_0_20_c = arith.constant 0 : index
    %arg_0_0_0_20_d = arith.constant 20 : index
    %arg_0_0_0_20_v = arith.constant -0.4242129623889923 : f32
    memref.store %arg_0_0_0_20_v, %arg0[%arg_0_0_0_20_a, %arg_0_0_0_20_b, %arg_0_0_0_20_c, %arg_0_0_0_20_d] : memref<1x1x28x28xf32> 
    %arg_0_0_0_21_a = arith.constant 0 : index
    %arg_0_0_0_21_b = arith.constant 0 : index
    %arg_0_0_0_21_c = arith.constant 0 : index
    %arg_0_0_0_21_d = arith.constant 21 : index
    %arg_0_0_0_21_v = arith.constant -0.4242129623889923 : f32
    memref.store %arg_0_0_0_21_v, %arg0[%arg_0_0_0_21_a, %arg_0_0_0_21_b, %arg_0_0_0_21_c, %arg_0_0_0_21_d] : memref<1x1x28x28xf32> 
    %arg_0_0_0_22_a = arith.constant 0 : index
    %arg_0_0_0_22_b = arith.constant 0 : index
    %arg_0_0_0_22_c = arith.constant 0 : index
    %arg_0_0_0_22_d = arith.constant 22 : index
    %arg_0_0_0_22_v = arith.constant -0.4242129623889923 : f32
    memref.store %arg_0_0_0_22_v, %arg0[%arg_0_0_0_22_a, %arg_0_0_0_22_b, %arg_0_0_0_22_c, %arg_0_0_0_22_d] : memref<1x1x28x28xf32> 
    %arg_0_0_0_23_a = arith.constant 0 : index
    %arg_0_0_0_23_b = arith.constant 0 : index
    %arg_0_0_0_23_c = arith.constant 0 : index
    %arg_0_0_0_23_d = arith.constant 23 : index
    %arg_0_0_0_23_v = arith.constant -0.4242129623889923 : f32
    memref.store %arg_0_0_0_23_v, %arg0[%arg_0_0_0_23_a, %arg_0_0_0_23_b, %arg_0_0_0_23_c, %arg_0_0_0_23_d] : memref<1x1x28x28xf32> 
    %arg_0_0_0_24_a = arith.constant 0 : index
    %arg_0_0_0_24_b = arith.constant 0 : index
    %arg_0_0_0_24_c = arith.constant 0 : index
    %arg_0_0_0_24_d = arith.constant 24 : index
    %arg_0_0_0_24_v = arith.constant -0.4242129623889923 : f32
    memref.store %arg_0_0_0_24_v, %arg0[%arg_0_0_0_24_a, %arg_0_0_0_24_b, %arg_0_0_0_24_c, %arg_0_0_0_24_d] : memref<1x1x28x28xf32> 
    %arg_0_0_0_25_a = arith.constant 0 : index
    %arg_0_0_0_25_b = arith.constant 0 : index
    %arg_0_0_0_25_c = arith.constant 0 : index
    %arg_0_0_0_25_d = arith.constant 25 : index
    %arg_0_0_0_25_v = arith.constant -0.4242129623889923 : f32
    memref.store %arg_0_0_0_25_v, %arg0[%arg_0_0_0_25_a, %arg_0_0_0_25_b, %arg_0_0_0_25_c, %arg_0_0_0_25_d] : memref<1x1x28x28xf32> 
    %arg_0_0_0_26_a = arith.constant 0 : index
    %arg_0_0_0_26_b = arith.constant 0 : index
    %arg_0_0_0_26_c = arith.constant 0 : index
    %arg_0_0_0_26_d = arith.constant 26 : index
    %arg_0_0_0_26_v = arith.constant -0.4242129623889923 : f32
    memref.store %arg_0_0_0_26_v, %arg0[%arg_0_0_0_26_a, %arg_0_0_0_26_b, %arg_0_0_0_26_c, %arg_0_0_0_26_d] : memref<1x1x28x28xf32> 
    %arg_0_0_0_27_a = arith.constant 0 : index
    %arg_0_0_0_27_b = arith.constant 0 : index
    %arg_0_0_0_27_c = arith.constant 0 : index
    %arg_0_0_0_27_d = arith.constant 27 : index
    %arg_0_0_0_27_v = arith.constant -0.4242129623889923 : f32
    memref.store %arg_0_0_0_27_v, %arg0[%arg_0_0_0_27_a, %arg_0_0_0_27_b, %arg_0_0_0_27_c, %arg_0_0_0_27_d] : memref<1x1x28x28xf32> 
    %arg_0_0_1_0_a = arith.constant 0 : index
    %arg_0_0_1_0_b = arith.constant 0 : index
    %arg_0_0_1_0_c = arith.constant 1 : index
    %arg_0_0_1_0_d = arith.constant 0 : index
    %arg_0_0_1_0_v = arith.constant -0.4242129623889923 : f32
    memref.store %arg_0_0_1_0_v, %arg0[%arg_0_0_1_0_a, %arg_0_0_1_0_b, %arg_0_0_1_0_c, %arg_0_0_1_0_d] : memref<1x1x28x28xf32> 
    %arg_0_0_1_1_a = arith.constant 0 : index
    %arg_0_0_1_1_b = arith.constant 0 : index
    %arg_0_0_1_1_c = arith.constant 1 : index
    %arg_0_0_1_1_d = arith.constant 1 : index
    %arg_0_0_1_1_v = arith.constant -0.4242129623889923 : f32
    memref.store %arg_0_0_1_1_v, %arg0[%arg_0_0_1_1_a, %arg_0_0_1_1_b, %arg_0_0_1_1_c, %arg_0_0_1_1_d] : memref<1x1x28x28xf32> 
    %arg_0_0_1_2_a = arith.constant 0 : index
    %arg_0_0_1_2_b = arith.constant 0 : index
    %arg_0_0_1_2_c = arith.constant 1 : index
    %arg_0_0_1_2_d = arith.constant 2 : index
    %arg_0_0_1_2_v = arith.constant -0.4242129623889923 : f32
    memref.store %arg_0_0_1_2_v, %arg0[%arg_0_0_1_2_a, %arg_0_0_1_2_b, %arg_0_0_1_2_c, %arg_0_0_1_2_d] : memref<1x1x28x28xf32> 
    %arg_0_0_1_3_a = arith.constant 0 : index
    %arg_0_0_1_3_b = arith.constant 0 : index
    %arg_0_0_1_3_c = arith.constant 1 : index
    %arg_0_0_1_3_d = arith.constant 3 : index
    %arg_0_0_1_3_v = arith.constant -0.4242129623889923 : f32
    memref.store %arg_0_0_1_3_v, %arg0[%arg_0_0_1_3_a, %arg_0_0_1_3_b, %arg_0_0_1_3_c, %arg_0_0_1_3_d] : memref<1x1x28x28xf32> 
    %arg_0_0_1_4_a = arith.constant 0 : index
    %arg_0_0_1_4_b = arith.constant 0 : index
    %arg_0_0_1_4_c = arith.constant 1 : index
    %arg_0_0_1_4_d = arith.constant 4 : index
    %arg_0_0_1_4_v = arith.constant -0.4242129623889923 : f32
    memref.store %arg_0_0_1_4_v, %arg0[%arg_0_0_1_4_a, %arg_0_0_1_4_b, %arg_0_0_1_4_c, %arg_0_0_1_4_d] : memref<1x1x28x28xf32> 
    %arg_0_0_1_5_a = arith.constant 0 : index
    %arg_0_0_1_5_b = arith.constant 0 : index
    %arg_0_0_1_5_c = arith.constant 1 : index
    %arg_0_0_1_5_d = arith.constant 5 : index
    %arg_0_0_1_5_v = arith.constant -0.4242129623889923 : f32
    memref.store %arg_0_0_1_5_v, %arg0[%arg_0_0_1_5_a, %arg_0_0_1_5_b, %arg_0_0_1_5_c, %arg_0_0_1_5_d] : memref<1x1x28x28xf32> 
    %arg_0_0_1_6_a = arith.constant 0 : index
    %arg_0_0_1_6_b = arith.constant 0 : index
    %arg_0_0_1_6_c = arith.constant 1 : index
    %arg_0_0_1_6_d = arith.constant 6 : index
    %arg_0_0_1_6_v = arith.constant -0.4242129623889923 : f32
    memref.store %arg_0_0_1_6_v, %arg0[%arg_0_0_1_6_a, %arg_0_0_1_6_b, %arg_0_0_1_6_c, %arg_0_0_1_6_d] : memref<1x1x28x28xf32> 
    %arg_0_0_1_7_a = arith.constant 0 : index
    %arg_0_0_1_7_b = arith.constant 0 : index
    %arg_0_0_1_7_c = arith.constant 1 : index
    %arg_0_0_1_7_d = arith.constant 7 : index
    %arg_0_0_1_7_v = arith.constant -0.4242129623889923 : f32
    memref.store %arg_0_0_1_7_v, %arg0[%arg_0_0_1_7_a, %arg_0_0_1_7_b, %arg_0_0_1_7_c, %arg_0_0_1_7_d] : memref<1x1x28x28xf32> 
    %arg_0_0_1_8_a = arith.constant 0 : index
    %arg_0_0_1_8_b = arith.constant 0 : index
    %arg_0_0_1_8_c = arith.constant 1 : index
    %arg_0_0_1_8_d = arith.constant 8 : index
    %arg_0_0_1_8_v = arith.constant -0.4242129623889923 : f32
    memref.store %arg_0_0_1_8_v, %arg0[%arg_0_0_1_8_a, %arg_0_0_1_8_b, %arg_0_0_1_8_c, %arg_0_0_1_8_d] : memref<1x1x28x28xf32> 
    %arg_0_0_1_9_a = arith.constant 0 : index
    %arg_0_0_1_9_b = arith.constant 0 : index
    %arg_0_0_1_9_c = arith.constant 1 : index
    %arg_0_0_1_9_d = arith.constant 9 : index
    %arg_0_0_1_9_v = arith.constant -0.4242129623889923 : f32
    memref.store %arg_0_0_1_9_v, %arg0[%arg_0_0_1_9_a, %arg_0_0_1_9_b, %arg_0_0_1_9_c, %arg_0_0_1_9_d] : memref<1x1x28x28xf32> 
    %arg_0_0_1_10_a = arith.constant 0 : index
    %arg_0_0_1_10_b = arith.constant 0 : index
    %arg_0_0_1_10_c = arith.constant 1 : index
    %arg_0_0_1_10_d = arith.constant 10 : index
    %arg_0_0_1_10_v = arith.constant -0.4242129623889923 : f32
    memref.store %arg_0_0_1_10_v, %arg0[%arg_0_0_1_10_a, %arg_0_0_1_10_b, %arg_0_0_1_10_c, %arg_0_0_1_10_d] : memref<1x1x28x28xf32> 
    %arg_0_0_1_11_a = arith.constant 0 : index
    %arg_0_0_1_11_b = arith.constant 0 : index
    %arg_0_0_1_11_c = arith.constant 1 : index
    %arg_0_0_1_11_d = arith.constant 11 : index
    %arg_0_0_1_11_v = arith.constant -0.4242129623889923 : f32
    memref.store %arg_0_0_1_11_v, %arg0[%arg_0_0_1_11_a, %arg_0_0_1_11_b, %arg_0_0_1_11_c, %arg_0_0_1_11_d] : memref<1x1x28x28xf32> 
    %arg_0_0_1_12_a = arith.constant 0 : index
    %arg_0_0_1_12_b = arith.constant 0 : index
    %arg_0_0_1_12_c = arith.constant 1 : index
    %arg_0_0_1_12_d = arith.constant 12 : index
    %arg_0_0_1_12_v = arith.constant -0.4242129623889923 : f32
    memref.store %arg_0_0_1_12_v, %arg0[%arg_0_0_1_12_a, %arg_0_0_1_12_b, %arg_0_0_1_12_c, %arg_0_0_1_12_d] : memref<1x1x28x28xf32> 
    %arg_0_0_1_13_a = arith.constant 0 : index
    %arg_0_0_1_13_b = arith.constant 0 : index
    %arg_0_0_1_13_c = arith.constant 1 : index
    %arg_0_0_1_13_d = arith.constant 13 : index
    %arg_0_0_1_13_v = arith.constant -0.4242129623889923 : f32
    memref.store %arg_0_0_1_13_v, %arg0[%arg_0_0_1_13_a, %arg_0_0_1_13_b, %arg_0_0_1_13_c, %arg_0_0_1_13_d] : memref<1x1x28x28xf32> 
    %arg_0_0_1_14_a = arith.constant 0 : index
    %arg_0_0_1_14_b = arith.constant 0 : index
    %arg_0_0_1_14_c = arith.constant 1 : index
    %arg_0_0_1_14_d = arith.constant 14 : index
    %arg_0_0_1_14_v = arith.constant -0.4242129623889923 : f32
    memref.store %arg_0_0_1_14_v, %arg0[%arg_0_0_1_14_a, %arg_0_0_1_14_b, %arg_0_0_1_14_c, %arg_0_0_1_14_d] : memref<1x1x28x28xf32> 
    %arg_0_0_1_15_a = arith.constant 0 : index
    %arg_0_0_1_15_b = arith.constant 0 : index
    %arg_0_0_1_15_c = arith.constant 1 : index
    %arg_0_0_1_15_d = arith.constant 15 : index
    %arg_0_0_1_15_v = arith.constant -0.4242129623889923 : f32
    memref.store %arg_0_0_1_15_v, %arg0[%arg_0_0_1_15_a, %arg_0_0_1_15_b, %arg_0_0_1_15_c, %arg_0_0_1_15_d] : memref<1x1x28x28xf32> 
    %arg_0_0_1_16_a = arith.constant 0 : index
    %arg_0_0_1_16_b = arith.constant 0 : index
    %arg_0_0_1_16_c = arith.constant 1 : index
    %arg_0_0_1_16_d = arith.constant 16 : index
    %arg_0_0_1_16_v = arith.constant -0.4242129623889923 : f32
    memref.store %arg_0_0_1_16_v, %arg0[%arg_0_0_1_16_a, %arg_0_0_1_16_b, %arg_0_0_1_16_c, %arg_0_0_1_16_d] : memref<1x1x28x28xf32> 
    %arg_0_0_1_17_a = arith.constant 0 : index
    %arg_0_0_1_17_b = arith.constant 0 : index
    %arg_0_0_1_17_c = arith.constant 1 : index
    %arg_0_0_1_17_d = arith.constant 17 : index
    %arg_0_0_1_17_v = arith.constant -0.4242129623889923 : f32
    memref.store %arg_0_0_1_17_v, %arg0[%arg_0_0_1_17_a, %arg_0_0_1_17_b, %arg_0_0_1_17_c, %arg_0_0_1_17_d] : memref<1x1x28x28xf32> 
    %arg_0_0_1_18_a = arith.constant 0 : index
    %arg_0_0_1_18_b = arith.constant 0 : index
    %arg_0_0_1_18_c = arith.constant 1 : index
    %arg_0_0_1_18_d = arith.constant 18 : index
    %arg_0_0_1_18_v = arith.constant -0.4242129623889923 : f32
    memref.store %arg_0_0_1_18_v, %arg0[%arg_0_0_1_18_a, %arg_0_0_1_18_b, %arg_0_0_1_18_c, %arg_0_0_1_18_d] : memref<1x1x28x28xf32> 
    %arg_0_0_1_19_a = arith.constant 0 : index
    %arg_0_0_1_19_b = arith.constant 0 : index
    %arg_0_0_1_19_c = arith.constant 1 : index
    %arg_0_0_1_19_d = arith.constant 19 : index
    %arg_0_0_1_19_v = arith.constant -0.4242129623889923 : f32
    memref.store %arg_0_0_1_19_v, %arg0[%arg_0_0_1_19_a, %arg_0_0_1_19_b, %arg_0_0_1_19_c, %arg_0_0_1_19_d] : memref<1x1x28x28xf32> 
    %arg_0_0_1_20_a = arith.constant 0 : index
    %arg_0_0_1_20_b = arith.constant 0 : index
    %arg_0_0_1_20_c = arith.constant 1 : index
    %arg_0_0_1_20_d = arith.constant 20 : index
    %arg_0_0_1_20_v = arith.constant -0.4242129623889923 : f32
    memref.store %arg_0_0_1_20_v, %arg0[%arg_0_0_1_20_a, %arg_0_0_1_20_b, %arg_0_0_1_20_c, %arg_0_0_1_20_d] : memref<1x1x28x28xf32> 
    %arg_0_0_1_21_a = arith.constant 0 : index
    %arg_0_0_1_21_b = arith.constant 0 : index
    %arg_0_0_1_21_c = arith.constant 1 : index
    %arg_0_0_1_21_d = arith.constant 21 : index
    %arg_0_0_1_21_v = arith.constant -0.4242129623889923 : f32
    memref.store %arg_0_0_1_21_v, %arg0[%arg_0_0_1_21_a, %arg_0_0_1_21_b, %arg_0_0_1_21_c, %arg_0_0_1_21_d] : memref<1x1x28x28xf32> 
    %arg_0_0_1_22_a = arith.constant 0 : index
    %arg_0_0_1_22_b = arith.constant 0 : index
    %arg_0_0_1_22_c = arith.constant 1 : index
    %arg_0_0_1_22_d = arith.constant 22 : index
    %arg_0_0_1_22_v = arith.constant -0.4242129623889923 : f32
    memref.store %arg_0_0_1_22_v, %arg0[%arg_0_0_1_22_a, %arg_0_0_1_22_b, %arg_0_0_1_22_c, %arg_0_0_1_22_d] : memref<1x1x28x28xf32> 
    %arg_0_0_1_23_a = arith.constant 0 : index
    %arg_0_0_1_23_b = arith.constant 0 : index
    %arg_0_0_1_23_c = arith.constant 1 : index
    %arg_0_0_1_23_d = arith.constant 23 : index
    %arg_0_0_1_23_v = arith.constant -0.4242129623889923 : f32
    memref.store %arg_0_0_1_23_v, %arg0[%arg_0_0_1_23_a, %arg_0_0_1_23_b, %arg_0_0_1_23_c, %arg_0_0_1_23_d] : memref<1x1x28x28xf32> 
    %arg_0_0_1_24_a = arith.constant 0 : index
    %arg_0_0_1_24_b = arith.constant 0 : index
    %arg_0_0_1_24_c = arith.constant 1 : index
    %arg_0_0_1_24_d = arith.constant 24 : index
    %arg_0_0_1_24_v = arith.constant -0.4242129623889923 : f32
    memref.store %arg_0_0_1_24_v, %arg0[%arg_0_0_1_24_a, %arg_0_0_1_24_b, %arg_0_0_1_24_c, %arg_0_0_1_24_d] : memref<1x1x28x28xf32> 
    %arg_0_0_1_25_a = arith.constant 0 : index
    %arg_0_0_1_25_b = arith.constant 0 : index
    %arg_0_0_1_25_c = arith.constant 1 : index
    %arg_0_0_1_25_d = arith.constant 25 : index
    %arg_0_0_1_25_v = arith.constant -0.4242129623889923 : f32
    memref.store %arg_0_0_1_25_v, %arg0[%arg_0_0_1_25_a, %arg_0_0_1_25_b, %arg_0_0_1_25_c, %arg_0_0_1_25_d] : memref<1x1x28x28xf32> 
    %arg_0_0_1_26_a = arith.constant 0 : index
    %arg_0_0_1_26_b = arith.constant 0 : index
    %arg_0_0_1_26_c = arith.constant 1 : index
    %arg_0_0_1_26_d = arith.constant 26 : index
    %arg_0_0_1_26_v = arith.constant -0.4242129623889923 : f32
    memref.store %arg_0_0_1_26_v, %arg0[%arg_0_0_1_26_a, %arg_0_0_1_26_b, %arg_0_0_1_26_c, %arg_0_0_1_26_d] : memref<1x1x28x28xf32> 
    %arg_0_0_1_27_a = arith.constant 0 : index
    %arg_0_0_1_27_b = arith.constant 0 : index
    %arg_0_0_1_27_c = arith.constant 1 : index
    %arg_0_0_1_27_d = arith.constant 27 : index
    %arg_0_0_1_27_v = arith.constant -0.4242129623889923 : f32
    memref.store %arg_0_0_1_27_v, %arg0[%arg_0_0_1_27_a, %arg_0_0_1_27_b, %arg_0_0_1_27_c, %arg_0_0_1_27_d] : memref<1x1x28x28xf32> 
    %arg_0_0_2_0_a = arith.constant 0 : index
    %arg_0_0_2_0_b = arith.constant 0 : index
    %arg_0_0_2_0_c = arith.constant 2 : index
    %arg_0_0_2_0_d = arith.constant 0 : index
    %arg_0_0_2_0_v = arith.constant -0.4242129623889923 : f32
    memref.store %arg_0_0_2_0_v, %arg0[%arg_0_0_2_0_a, %arg_0_0_2_0_b, %arg_0_0_2_0_c, %arg_0_0_2_0_d] : memref<1x1x28x28xf32> 
    %arg_0_0_2_1_a = arith.constant 0 : index
    %arg_0_0_2_1_b = arith.constant 0 : index
    %arg_0_0_2_1_c = arith.constant 2 : index
    %arg_0_0_2_1_d = arith.constant 1 : index
    %arg_0_0_2_1_v = arith.constant -0.4242129623889923 : f32
    memref.store %arg_0_0_2_1_v, %arg0[%arg_0_0_2_1_a, %arg_0_0_2_1_b, %arg_0_0_2_1_c, %arg_0_0_2_1_d] : memref<1x1x28x28xf32> 
    %arg_0_0_2_2_a = arith.constant 0 : index
    %arg_0_0_2_2_b = arith.constant 0 : index
    %arg_0_0_2_2_c = arith.constant 2 : index
    %arg_0_0_2_2_d = arith.constant 2 : index
    %arg_0_0_2_2_v = arith.constant -0.4242129623889923 : f32
    memref.store %arg_0_0_2_2_v, %arg0[%arg_0_0_2_2_a, %arg_0_0_2_2_b, %arg_0_0_2_2_c, %arg_0_0_2_2_d] : memref<1x1x28x28xf32> 
    %arg_0_0_2_3_a = arith.constant 0 : index
    %arg_0_0_2_3_b = arith.constant 0 : index
    %arg_0_0_2_3_c = arith.constant 2 : index
    %arg_0_0_2_3_d = arith.constant 3 : index
    %arg_0_0_2_3_v = arith.constant -0.4242129623889923 : f32
    memref.store %arg_0_0_2_3_v, %arg0[%arg_0_0_2_3_a, %arg_0_0_2_3_b, %arg_0_0_2_3_c, %arg_0_0_2_3_d] : memref<1x1x28x28xf32> 
    %arg_0_0_2_4_a = arith.constant 0 : index
    %arg_0_0_2_4_b = arith.constant 0 : index
    %arg_0_0_2_4_c = arith.constant 2 : index
    %arg_0_0_2_4_d = arith.constant 4 : index
    %arg_0_0_2_4_v = arith.constant -0.4242129623889923 : f32
    memref.store %arg_0_0_2_4_v, %arg0[%arg_0_0_2_4_a, %arg_0_0_2_4_b, %arg_0_0_2_4_c, %arg_0_0_2_4_d] : memref<1x1x28x28xf32> 
    %arg_0_0_2_5_a = arith.constant 0 : index
    %arg_0_0_2_5_b = arith.constant 0 : index
    %arg_0_0_2_5_c = arith.constant 2 : index
    %arg_0_0_2_5_d = arith.constant 5 : index
    %arg_0_0_2_5_v = arith.constant -0.4242129623889923 : f32
    memref.store %arg_0_0_2_5_v, %arg0[%arg_0_0_2_5_a, %arg_0_0_2_5_b, %arg_0_0_2_5_c, %arg_0_0_2_5_d] : memref<1x1x28x28xf32> 
    %arg_0_0_2_6_a = arith.constant 0 : index
    %arg_0_0_2_6_b = arith.constant 0 : index
    %arg_0_0_2_6_c = arith.constant 2 : index
    %arg_0_0_2_6_d = arith.constant 6 : index
    %arg_0_0_2_6_v = arith.constant -0.4242129623889923 : f32
    memref.store %arg_0_0_2_6_v, %arg0[%arg_0_0_2_6_a, %arg_0_0_2_6_b, %arg_0_0_2_6_c, %arg_0_0_2_6_d] : memref<1x1x28x28xf32> 
    %arg_0_0_2_7_a = arith.constant 0 : index
    %arg_0_0_2_7_b = arith.constant 0 : index
    %arg_0_0_2_7_c = arith.constant 2 : index
    %arg_0_0_2_7_d = arith.constant 7 : index
    %arg_0_0_2_7_v = arith.constant -0.4242129623889923 : f32
    memref.store %arg_0_0_2_7_v, %arg0[%arg_0_0_2_7_a, %arg_0_0_2_7_b, %arg_0_0_2_7_c, %arg_0_0_2_7_d] : memref<1x1x28x28xf32> 
    %arg_0_0_2_8_a = arith.constant 0 : index
    %arg_0_0_2_8_b = arith.constant 0 : index
    %arg_0_0_2_8_c = arith.constant 2 : index
    %arg_0_0_2_8_d = arith.constant 8 : index
    %arg_0_0_2_8_v = arith.constant -0.4242129623889923 : f32
    memref.store %arg_0_0_2_8_v, %arg0[%arg_0_0_2_8_a, %arg_0_0_2_8_b, %arg_0_0_2_8_c, %arg_0_0_2_8_d] : memref<1x1x28x28xf32> 
    %arg_0_0_2_9_a = arith.constant 0 : index
    %arg_0_0_2_9_b = arith.constant 0 : index
    %arg_0_0_2_9_c = arith.constant 2 : index
    %arg_0_0_2_9_d = arith.constant 9 : index
    %arg_0_0_2_9_v = arith.constant -0.4242129623889923 : f32
    memref.store %arg_0_0_2_9_v, %arg0[%arg_0_0_2_9_a, %arg_0_0_2_9_b, %arg_0_0_2_9_c, %arg_0_0_2_9_d] : memref<1x1x28x28xf32> 
    %arg_0_0_2_10_a = arith.constant 0 : index
    %arg_0_0_2_10_b = arith.constant 0 : index
    %arg_0_0_2_10_c = arith.constant 2 : index
    %arg_0_0_2_10_d = arith.constant 10 : index
    %arg_0_0_2_10_v = arith.constant -0.4242129623889923 : f32
    memref.store %arg_0_0_2_10_v, %arg0[%arg_0_0_2_10_a, %arg_0_0_2_10_b, %arg_0_0_2_10_c, %arg_0_0_2_10_d] : memref<1x1x28x28xf32> 
    %arg_0_0_2_11_a = arith.constant 0 : index
    %arg_0_0_2_11_b = arith.constant 0 : index
    %arg_0_0_2_11_c = arith.constant 2 : index
    %arg_0_0_2_11_d = arith.constant 11 : index
    %arg_0_0_2_11_v = arith.constant -0.4242129623889923 : f32
    memref.store %arg_0_0_2_11_v, %arg0[%arg_0_0_2_11_a, %arg_0_0_2_11_b, %arg_0_0_2_11_c, %arg_0_0_2_11_d] : memref<1x1x28x28xf32> 
    %arg_0_0_2_12_a = arith.constant 0 : index
    %arg_0_0_2_12_b = arith.constant 0 : index
    %arg_0_0_2_12_c = arith.constant 2 : index
    %arg_0_0_2_12_d = arith.constant 12 : index
    %arg_0_0_2_12_v = arith.constant -0.4242129623889923 : f32
    memref.store %arg_0_0_2_12_v, %arg0[%arg_0_0_2_12_a, %arg_0_0_2_12_b, %arg_0_0_2_12_c, %arg_0_0_2_12_d] : memref<1x1x28x28xf32> 
    %arg_0_0_2_13_a = arith.constant 0 : index
    %arg_0_0_2_13_b = arith.constant 0 : index
    %arg_0_0_2_13_c = arith.constant 2 : index
    %arg_0_0_2_13_d = arith.constant 13 : index
    %arg_0_0_2_13_v = arith.constant -0.4242129623889923 : f32
    memref.store %arg_0_0_2_13_v, %arg0[%arg_0_0_2_13_a, %arg_0_0_2_13_b, %arg_0_0_2_13_c, %arg_0_0_2_13_d] : memref<1x1x28x28xf32> 
    %arg_0_0_2_14_a = arith.constant 0 : index
    %arg_0_0_2_14_b = arith.constant 0 : index
    %arg_0_0_2_14_c = arith.constant 2 : index
    %arg_0_0_2_14_d = arith.constant 14 : index
    %arg_0_0_2_14_v = arith.constant -0.4242129623889923 : f32
    memref.store %arg_0_0_2_14_v, %arg0[%arg_0_0_2_14_a, %arg_0_0_2_14_b, %arg_0_0_2_14_c, %arg_0_0_2_14_d] : memref<1x1x28x28xf32> 
    %arg_0_0_2_15_a = arith.constant 0 : index
    %arg_0_0_2_15_b = arith.constant 0 : index
    %arg_0_0_2_15_c = arith.constant 2 : index
    %arg_0_0_2_15_d = arith.constant 15 : index
    %arg_0_0_2_15_v = arith.constant -0.4242129623889923 : f32
    memref.store %arg_0_0_2_15_v, %arg0[%arg_0_0_2_15_a, %arg_0_0_2_15_b, %arg_0_0_2_15_c, %arg_0_0_2_15_d] : memref<1x1x28x28xf32> 
    %arg_0_0_2_16_a = arith.constant 0 : index
    %arg_0_0_2_16_b = arith.constant 0 : index
    %arg_0_0_2_16_c = arith.constant 2 : index
    %arg_0_0_2_16_d = arith.constant 16 : index
    %arg_0_0_2_16_v = arith.constant -0.4242129623889923 : f32
    memref.store %arg_0_0_2_16_v, %arg0[%arg_0_0_2_16_a, %arg_0_0_2_16_b, %arg_0_0_2_16_c, %arg_0_0_2_16_d] : memref<1x1x28x28xf32> 
    %arg_0_0_2_17_a = arith.constant 0 : index
    %arg_0_0_2_17_b = arith.constant 0 : index
    %arg_0_0_2_17_c = arith.constant 2 : index
    %arg_0_0_2_17_d = arith.constant 17 : index
    %arg_0_0_2_17_v = arith.constant -0.4242129623889923 : f32
    memref.store %arg_0_0_2_17_v, %arg0[%arg_0_0_2_17_a, %arg_0_0_2_17_b, %arg_0_0_2_17_c, %arg_0_0_2_17_d] : memref<1x1x28x28xf32> 
    %arg_0_0_2_18_a = arith.constant 0 : index
    %arg_0_0_2_18_b = arith.constant 0 : index
    %arg_0_0_2_18_c = arith.constant 2 : index
    %arg_0_0_2_18_d = arith.constant 18 : index
    %arg_0_0_2_18_v = arith.constant -0.4242129623889923 : f32
    memref.store %arg_0_0_2_18_v, %arg0[%arg_0_0_2_18_a, %arg_0_0_2_18_b, %arg_0_0_2_18_c, %arg_0_0_2_18_d] : memref<1x1x28x28xf32> 
    %arg_0_0_2_19_a = arith.constant 0 : index
    %arg_0_0_2_19_b = arith.constant 0 : index
    %arg_0_0_2_19_c = arith.constant 2 : index
    %arg_0_0_2_19_d = arith.constant 19 : index
    %arg_0_0_2_19_v = arith.constant -0.4242129623889923 : f32
    memref.store %arg_0_0_2_19_v, %arg0[%arg_0_0_2_19_a, %arg_0_0_2_19_b, %arg_0_0_2_19_c, %arg_0_0_2_19_d] : memref<1x1x28x28xf32> 
    %arg_0_0_2_20_a = arith.constant 0 : index
    %arg_0_0_2_20_b = arith.constant 0 : index
    %arg_0_0_2_20_c = arith.constant 2 : index
    %arg_0_0_2_20_d = arith.constant 20 : index
    %arg_0_0_2_20_v = arith.constant -0.4242129623889923 : f32
    memref.store %arg_0_0_2_20_v, %arg0[%arg_0_0_2_20_a, %arg_0_0_2_20_b, %arg_0_0_2_20_c, %arg_0_0_2_20_d] : memref<1x1x28x28xf32> 
    %arg_0_0_2_21_a = arith.constant 0 : index
    %arg_0_0_2_21_b = arith.constant 0 : index
    %arg_0_0_2_21_c = arith.constant 2 : index
    %arg_0_0_2_21_d = arith.constant 21 : index
    %arg_0_0_2_21_v = arith.constant -0.4242129623889923 : f32
    memref.store %arg_0_0_2_21_v, %arg0[%arg_0_0_2_21_a, %arg_0_0_2_21_b, %arg_0_0_2_21_c, %arg_0_0_2_21_d] : memref<1x1x28x28xf32> 
    %arg_0_0_2_22_a = arith.constant 0 : index
    %arg_0_0_2_22_b = arith.constant 0 : index
    %arg_0_0_2_22_c = arith.constant 2 : index
    %arg_0_0_2_22_d = arith.constant 22 : index
    %arg_0_0_2_22_v = arith.constant -0.4242129623889923 : f32
    memref.store %arg_0_0_2_22_v, %arg0[%arg_0_0_2_22_a, %arg_0_0_2_22_b, %arg_0_0_2_22_c, %arg_0_0_2_22_d] : memref<1x1x28x28xf32> 
    %arg_0_0_2_23_a = arith.constant 0 : index
    %arg_0_0_2_23_b = arith.constant 0 : index
    %arg_0_0_2_23_c = arith.constant 2 : index
    %arg_0_0_2_23_d = arith.constant 23 : index
    %arg_0_0_2_23_v = arith.constant -0.4242129623889923 : f32
    memref.store %arg_0_0_2_23_v, %arg0[%arg_0_0_2_23_a, %arg_0_0_2_23_b, %arg_0_0_2_23_c, %arg_0_0_2_23_d] : memref<1x1x28x28xf32> 
    %arg_0_0_2_24_a = arith.constant 0 : index
    %arg_0_0_2_24_b = arith.constant 0 : index
    %arg_0_0_2_24_c = arith.constant 2 : index
    %arg_0_0_2_24_d = arith.constant 24 : index
    %arg_0_0_2_24_v = arith.constant -0.4242129623889923 : f32
    memref.store %arg_0_0_2_24_v, %arg0[%arg_0_0_2_24_a, %arg_0_0_2_24_b, %arg_0_0_2_24_c, %arg_0_0_2_24_d] : memref<1x1x28x28xf32> 
    %arg_0_0_2_25_a = arith.constant 0 : index
    %arg_0_0_2_25_b = arith.constant 0 : index
    %arg_0_0_2_25_c = arith.constant 2 : index
    %arg_0_0_2_25_d = arith.constant 25 : index
    %arg_0_0_2_25_v = arith.constant -0.4242129623889923 : f32
    memref.store %arg_0_0_2_25_v, %arg0[%arg_0_0_2_25_a, %arg_0_0_2_25_b, %arg_0_0_2_25_c, %arg_0_0_2_25_d] : memref<1x1x28x28xf32> 
    %arg_0_0_2_26_a = arith.constant 0 : index
    %arg_0_0_2_26_b = arith.constant 0 : index
    %arg_0_0_2_26_c = arith.constant 2 : index
    %arg_0_0_2_26_d = arith.constant 26 : index
    %arg_0_0_2_26_v = arith.constant -0.4242129623889923 : f32
    memref.store %arg_0_0_2_26_v, %arg0[%arg_0_0_2_26_a, %arg_0_0_2_26_b, %arg_0_0_2_26_c, %arg_0_0_2_26_d] : memref<1x1x28x28xf32> 
    %arg_0_0_2_27_a = arith.constant 0 : index
    %arg_0_0_2_27_b = arith.constant 0 : index
    %arg_0_0_2_27_c = arith.constant 2 : index
    %arg_0_0_2_27_d = arith.constant 27 : index
    %arg_0_0_2_27_v = arith.constant -0.4242129623889923 : f32
    memref.store %arg_0_0_2_27_v, %arg0[%arg_0_0_2_27_a, %arg_0_0_2_27_b, %arg_0_0_2_27_c, %arg_0_0_2_27_d] : memref<1x1x28x28xf32> 
    %arg_0_0_3_0_a = arith.constant 0 : index
    %arg_0_0_3_0_b = arith.constant 0 : index
    %arg_0_0_3_0_c = arith.constant 3 : index
    %arg_0_0_3_0_d = arith.constant 0 : index
    %arg_0_0_3_0_v = arith.constant -0.4242129623889923 : f32
    memref.store %arg_0_0_3_0_v, %arg0[%arg_0_0_3_0_a, %arg_0_0_3_0_b, %arg_0_0_3_0_c, %arg_0_0_3_0_d] : memref<1x1x28x28xf32> 
    %arg_0_0_3_1_a = arith.constant 0 : index
    %arg_0_0_3_1_b = arith.constant 0 : index
    %arg_0_0_3_1_c = arith.constant 3 : index
    %arg_0_0_3_1_d = arith.constant 1 : index
    %arg_0_0_3_1_v = arith.constant -0.4242129623889923 : f32
    memref.store %arg_0_0_3_1_v, %arg0[%arg_0_0_3_1_a, %arg_0_0_3_1_b, %arg_0_0_3_1_c, %arg_0_0_3_1_d] : memref<1x1x28x28xf32> 
    %arg_0_0_3_2_a = arith.constant 0 : index
    %arg_0_0_3_2_b = arith.constant 0 : index
    %arg_0_0_3_2_c = arith.constant 3 : index
    %arg_0_0_3_2_d = arith.constant 2 : index
    %arg_0_0_3_2_v = arith.constant -0.4242129623889923 : f32
    memref.store %arg_0_0_3_2_v, %arg0[%arg_0_0_3_2_a, %arg_0_0_3_2_b, %arg_0_0_3_2_c, %arg_0_0_3_2_d] : memref<1x1x28x28xf32> 
    %arg_0_0_3_3_a = arith.constant 0 : index
    %arg_0_0_3_3_b = arith.constant 0 : index
    %arg_0_0_3_3_c = arith.constant 3 : index
    %arg_0_0_3_3_d = arith.constant 3 : index
    %arg_0_0_3_3_v = arith.constant -0.4242129623889923 : f32
    memref.store %arg_0_0_3_3_v, %arg0[%arg_0_0_3_3_a, %arg_0_0_3_3_b, %arg_0_0_3_3_c, %arg_0_0_3_3_d] : memref<1x1x28x28xf32> 
    %arg_0_0_3_4_a = arith.constant 0 : index
    %arg_0_0_3_4_b = arith.constant 0 : index
    %arg_0_0_3_4_c = arith.constant 3 : index
    %arg_0_0_3_4_d = arith.constant 4 : index
    %arg_0_0_3_4_v = arith.constant -0.4242129623889923 : f32
    memref.store %arg_0_0_3_4_v, %arg0[%arg_0_0_3_4_a, %arg_0_0_3_4_b, %arg_0_0_3_4_c, %arg_0_0_3_4_d] : memref<1x1x28x28xf32> 
    %arg_0_0_3_5_a = arith.constant 0 : index
    %arg_0_0_3_5_b = arith.constant 0 : index
    %arg_0_0_3_5_c = arith.constant 3 : index
    %arg_0_0_3_5_d = arith.constant 5 : index
    %arg_0_0_3_5_v = arith.constant -0.4242129623889923 : f32
    memref.store %arg_0_0_3_5_v, %arg0[%arg_0_0_3_5_a, %arg_0_0_3_5_b, %arg_0_0_3_5_c, %arg_0_0_3_5_d] : memref<1x1x28x28xf32> 
    %arg_0_0_3_6_a = arith.constant 0 : index
    %arg_0_0_3_6_b = arith.constant 0 : index
    %arg_0_0_3_6_c = arith.constant 3 : index
    %arg_0_0_3_6_d = arith.constant 6 : index
    %arg_0_0_3_6_v = arith.constant -0.4242129623889923 : f32
    memref.store %arg_0_0_3_6_v, %arg0[%arg_0_0_3_6_a, %arg_0_0_3_6_b, %arg_0_0_3_6_c, %arg_0_0_3_6_d] : memref<1x1x28x28xf32> 
    %arg_0_0_3_7_a = arith.constant 0 : index
    %arg_0_0_3_7_b = arith.constant 0 : index
    %arg_0_0_3_7_c = arith.constant 3 : index
    %arg_0_0_3_7_d = arith.constant 7 : index
    %arg_0_0_3_7_v = arith.constant -0.4242129623889923 : f32
    memref.store %arg_0_0_3_7_v, %arg0[%arg_0_0_3_7_a, %arg_0_0_3_7_b, %arg_0_0_3_7_c, %arg_0_0_3_7_d] : memref<1x1x28x28xf32> 
    %arg_0_0_3_8_a = arith.constant 0 : index
    %arg_0_0_3_8_b = arith.constant 0 : index
    %arg_0_0_3_8_c = arith.constant 3 : index
    %arg_0_0_3_8_d = arith.constant 8 : index
    %arg_0_0_3_8_v = arith.constant -0.4242129623889923 : f32
    memref.store %arg_0_0_3_8_v, %arg0[%arg_0_0_3_8_a, %arg_0_0_3_8_b, %arg_0_0_3_8_c, %arg_0_0_3_8_d] : memref<1x1x28x28xf32> 
    %arg_0_0_3_9_a = arith.constant 0 : index
    %arg_0_0_3_9_b = arith.constant 0 : index
    %arg_0_0_3_9_c = arith.constant 3 : index
    %arg_0_0_3_9_d = arith.constant 9 : index
    %arg_0_0_3_9_v = arith.constant -0.4242129623889923 : f32
    memref.store %arg_0_0_3_9_v, %arg0[%arg_0_0_3_9_a, %arg_0_0_3_9_b, %arg_0_0_3_9_c, %arg_0_0_3_9_d] : memref<1x1x28x28xf32> 
    %arg_0_0_3_10_a = arith.constant 0 : index
    %arg_0_0_3_10_b = arith.constant 0 : index
    %arg_0_0_3_10_c = arith.constant 3 : index
    %arg_0_0_3_10_d = arith.constant 10 : index
    %arg_0_0_3_10_v = arith.constant -0.4242129623889923 : f32
    memref.store %arg_0_0_3_10_v, %arg0[%arg_0_0_3_10_a, %arg_0_0_3_10_b, %arg_0_0_3_10_c, %arg_0_0_3_10_d] : memref<1x1x28x28xf32> 
    %arg_0_0_3_11_a = arith.constant 0 : index
    %arg_0_0_3_11_b = arith.constant 0 : index
    %arg_0_0_3_11_c = arith.constant 3 : index
    %arg_0_0_3_11_d = arith.constant 11 : index
    %arg_0_0_3_11_v = arith.constant -0.4242129623889923 : f32
    memref.store %arg_0_0_3_11_v, %arg0[%arg_0_0_3_11_a, %arg_0_0_3_11_b, %arg_0_0_3_11_c, %arg_0_0_3_11_d] : memref<1x1x28x28xf32> 
    %arg_0_0_3_12_a = arith.constant 0 : index
    %arg_0_0_3_12_b = arith.constant 0 : index
    %arg_0_0_3_12_c = arith.constant 3 : index
    %arg_0_0_3_12_d = arith.constant 12 : index
    %arg_0_0_3_12_v = arith.constant -0.4242129623889923 : f32
    memref.store %arg_0_0_3_12_v, %arg0[%arg_0_0_3_12_a, %arg_0_0_3_12_b, %arg_0_0_3_12_c, %arg_0_0_3_12_d] : memref<1x1x28x28xf32> 
    %arg_0_0_3_13_a = arith.constant 0 : index
    %arg_0_0_3_13_b = arith.constant 0 : index
    %arg_0_0_3_13_c = arith.constant 3 : index
    %arg_0_0_3_13_d = arith.constant 13 : index
    %arg_0_0_3_13_v = arith.constant -0.4242129623889923 : f32
    memref.store %arg_0_0_3_13_v, %arg0[%arg_0_0_3_13_a, %arg_0_0_3_13_b, %arg_0_0_3_13_c, %arg_0_0_3_13_d] : memref<1x1x28x28xf32> 
    %arg_0_0_3_14_a = arith.constant 0 : index
    %arg_0_0_3_14_b = arith.constant 0 : index
    %arg_0_0_3_14_c = arith.constant 3 : index
    %arg_0_0_3_14_d = arith.constant 14 : index
    %arg_0_0_3_14_v = arith.constant -0.4242129623889923 : f32
    memref.store %arg_0_0_3_14_v, %arg0[%arg_0_0_3_14_a, %arg_0_0_3_14_b, %arg_0_0_3_14_c, %arg_0_0_3_14_d] : memref<1x1x28x28xf32> 
    %arg_0_0_3_15_a = arith.constant 0 : index
    %arg_0_0_3_15_b = arith.constant 0 : index
    %arg_0_0_3_15_c = arith.constant 3 : index
    %arg_0_0_3_15_d = arith.constant 15 : index
    %arg_0_0_3_15_v = arith.constant -0.4242129623889923 : f32
    memref.store %arg_0_0_3_15_v, %arg0[%arg_0_0_3_15_a, %arg_0_0_3_15_b, %arg_0_0_3_15_c, %arg_0_0_3_15_d] : memref<1x1x28x28xf32> 
    %arg_0_0_3_16_a = arith.constant 0 : index
    %arg_0_0_3_16_b = arith.constant 0 : index
    %arg_0_0_3_16_c = arith.constant 3 : index
    %arg_0_0_3_16_d = arith.constant 16 : index
    %arg_0_0_3_16_v = arith.constant -0.4242129623889923 : f32
    memref.store %arg_0_0_3_16_v, %arg0[%arg_0_0_3_16_a, %arg_0_0_3_16_b, %arg_0_0_3_16_c, %arg_0_0_3_16_d] : memref<1x1x28x28xf32> 
    %arg_0_0_3_17_a = arith.constant 0 : index
    %arg_0_0_3_17_b = arith.constant 0 : index
    %arg_0_0_3_17_c = arith.constant 3 : index
    %arg_0_0_3_17_d = arith.constant 17 : index
    %arg_0_0_3_17_v = arith.constant -0.4242129623889923 : f32
    memref.store %arg_0_0_3_17_v, %arg0[%arg_0_0_3_17_a, %arg_0_0_3_17_b, %arg_0_0_3_17_c, %arg_0_0_3_17_d] : memref<1x1x28x28xf32> 
    %arg_0_0_3_18_a = arith.constant 0 : index
    %arg_0_0_3_18_b = arith.constant 0 : index
    %arg_0_0_3_18_c = arith.constant 3 : index
    %arg_0_0_3_18_d = arith.constant 18 : index
    %arg_0_0_3_18_v = arith.constant -0.4242129623889923 : f32
    memref.store %arg_0_0_3_18_v, %arg0[%arg_0_0_3_18_a, %arg_0_0_3_18_b, %arg_0_0_3_18_c, %arg_0_0_3_18_d] : memref<1x1x28x28xf32> 
    %arg_0_0_3_19_a = arith.constant 0 : index
    %arg_0_0_3_19_b = arith.constant 0 : index
    %arg_0_0_3_19_c = arith.constant 3 : index
    %arg_0_0_3_19_d = arith.constant 19 : index
    %arg_0_0_3_19_v = arith.constant -0.4242129623889923 : f32
    memref.store %arg_0_0_3_19_v, %arg0[%arg_0_0_3_19_a, %arg_0_0_3_19_b, %arg_0_0_3_19_c, %arg_0_0_3_19_d] : memref<1x1x28x28xf32> 
    %arg_0_0_3_20_a = arith.constant 0 : index
    %arg_0_0_3_20_b = arith.constant 0 : index
    %arg_0_0_3_20_c = arith.constant 3 : index
    %arg_0_0_3_20_d = arith.constant 20 : index
    %arg_0_0_3_20_v = arith.constant -0.4242129623889923 : f32
    memref.store %arg_0_0_3_20_v, %arg0[%arg_0_0_3_20_a, %arg_0_0_3_20_b, %arg_0_0_3_20_c, %arg_0_0_3_20_d] : memref<1x1x28x28xf32> 
    %arg_0_0_3_21_a = arith.constant 0 : index
    %arg_0_0_3_21_b = arith.constant 0 : index
    %arg_0_0_3_21_c = arith.constant 3 : index
    %arg_0_0_3_21_d = arith.constant 21 : index
    %arg_0_0_3_21_v = arith.constant -0.4242129623889923 : f32
    memref.store %arg_0_0_3_21_v, %arg0[%arg_0_0_3_21_a, %arg_0_0_3_21_b, %arg_0_0_3_21_c, %arg_0_0_3_21_d] : memref<1x1x28x28xf32> 
    %arg_0_0_3_22_a = arith.constant 0 : index
    %arg_0_0_3_22_b = arith.constant 0 : index
    %arg_0_0_3_22_c = arith.constant 3 : index
    %arg_0_0_3_22_d = arith.constant 22 : index
    %arg_0_0_3_22_v = arith.constant -0.4242129623889923 : f32
    memref.store %arg_0_0_3_22_v, %arg0[%arg_0_0_3_22_a, %arg_0_0_3_22_b, %arg_0_0_3_22_c, %arg_0_0_3_22_d] : memref<1x1x28x28xf32> 
    %arg_0_0_3_23_a = arith.constant 0 : index
    %arg_0_0_3_23_b = arith.constant 0 : index
    %arg_0_0_3_23_c = arith.constant 3 : index
    %arg_0_0_3_23_d = arith.constant 23 : index
    %arg_0_0_3_23_v = arith.constant -0.4242129623889923 : f32
    memref.store %arg_0_0_3_23_v, %arg0[%arg_0_0_3_23_a, %arg_0_0_3_23_b, %arg_0_0_3_23_c, %arg_0_0_3_23_d] : memref<1x1x28x28xf32> 
    %arg_0_0_3_24_a = arith.constant 0 : index
    %arg_0_0_3_24_b = arith.constant 0 : index
    %arg_0_0_3_24_c = arith.constant 3 : index
    %arg_0_0_3_24_d = arith.constant 24 : index
    %arg_0_0_3_24_v = arith.constant -0.4242129623889923 : f32
    memref.store %arg_0_0_3_24_v, %arg0[%arg_0_0_3_24_a, %arg_0_0_3_24_b, %arg_0_0_3_24_c, %arg_0_0_3_24_d] : memref<1x1x28x28xf32> 
    %arg_0_0_3_25_a = arith.constant 0 : index
    %arg_0_0_3_25_b = arith.constant 0 : index
    %arg_0_0_3_25_c = arith.constant 3 : index
    %arg_0_0_3_25_d = arith.constant 25 : index
    %arg_0_0_3_25_v = arith.constant -0.4242129623889923 : f32
    memref.store %arg_0_0_3_25_v, %arg0[%arg_0_0_3_25_a, %arg_0_0_3_25_b, %arg_0_0_3_25_c, %arg_0_0_3_25_d] : memref<1x1x28x28xf32> 
    %arg_0_0_3_26_a = arith.constant 0 : index
    %arg_0_0_3_26_b = arith.constant 0 : index
    %arg_0_0_3_26_c = arith.constant 3 : index
    %arg_0_0_3_26_d = arith.constant 26 : index
    %arg_0_0_3_26_v = arith.constant -0.4242129623889923 : f32
    memref.store %arg_0_0_3_26_v, %arg0[%arg_0_0_3_26_a, %arg_0_0_3_26_b, %arg_0_0_3_26_c, %arg_0_0_3_26_d] : memref<1x1x28x28xf32> 
    %arg_0_0_3_27_a = arith.constant 0 : index
    %arg_0_0_3_27_b = arith.constant 0 : index
    %arg_0_0_3_27_c = arith.constant 3 : index
    %arg_0_0_3_27_d = arith.constant 27 : index
    %arg_0_0_3_27_v = arith.constant -0.4242129623889923 : f32
    memref.store %arg_0_0_3_27_v, %arg0[%arg_0_0_3_27_a, %arg_0_0_3_27_b, %arg_0_0_3_27_c, %arg_0_0_3_27_d] : memref<1x1x28x28xf32> 
    %arg_0_0_4_0_a = arith.constant 0 : index
    %arg_0_0_4_0_b = arith.constant 0 : index
    %arg_0_0_4_0_c = arith.constant 4 : index
    %arg_0_0_4_0_d = arith.constant 0 : index
    %arg_0_0_4_0_v = arith.constant -0.4242129623889923 : f32
    memref.store %arg_0_0_4_0_v, %arg0[%arg_0_0_4_0_a, %arg_0_0_4_0_b, %arg_0_0_4_0_c, %arg_0_0_4_0_d] : memref<1x1x28x28xf32> 
    %arg_0_0_4_1_a = arith.constant 0 : index
    %arg_0_0_4_1_b = arith.constant 0 : index
    %arg_0_0_4_1_c = arith.constant 4 : index
    %arg_0_0_4_1_d = arith.constant 1 : index
    %arg_0_0_4_1_v = arith.constant -0.4242129623889923 : f32
    memref.store %arg_0_0_4_1_v, %arg0[%arg_0_0_4_1_a, %arg_0_0_4_1_b, %arg_0_0_4_1_c, %arg_0_0_4_1_d] : memref<1x1x28x28xf32> 
    %arg_0_0_4_2_a = arith.constant 0 : index
    %arg_0_0_4_2_b = arith.constant 0 : index
    %arg_0_0_4_2_c = arith.constant 4 : index
    %arg_0_0_4_2_d = arith.constant 2 : index
    %arg_0_0_4_2_v = arith.constant -0.4242129623889923 : f32
    memref.store %arg_0_0_4_2_v, %arg0[%arg_0_0_4_2_a, %arg_0_0_4_2_b, %arg_0_0_4_2_c, %arg_0_0_4_2_d] : memref<1x1x28x28xf32> 
    %arg_0_0_4_3_a = arith.constant 0 : index
    %arg_0_0_4_3_b = arith.constant 0 : index
    %arg_0_0_4_3_c = arith.constant 4 : index
    %arg_0_0_4_3_d = arith.constant 3 : index
    %arg_0_0_4_3_v = arith.constant -0.4242129623889923 : f32
    memref.store %arg_0_0_4_3_v, %arg0[%arg_0_0_4_3_a, %arg_0_0_4_3_b, %arg_0_0_4_3_c, %arg_0_0_4_3_d] : memref<1x1x28x28xf32> 
    %arg_0_0_4_4_a = arith.constant 0 : index
    %arg_0_0_4_4_b = arith.constant 0 : index
    %arg_0_0_4_4_c = arith.constant 4 : index
    %arg_0_0_4_4_d = arith.constant 4 : index
    %arg_0_0_4_4_v = arith.constant -0.4242129623889923 : f32
    memref.store %arg_0_0_4_4_v, %arg0[%arg_0_0_4_4_a, %arg_0_0_4_4_b, %arg_0_0_4_4_c, %arg_0_0_4_4_d] : memref<1x1x28x28xf32> 
    %arg_0_0_4_5_a = arith.constant 0 : index
    %arg_0_0_4_5_b = arith.constant 0 : index
    %arg_0_0_4_5_c = arith.constant 4 : index
    %arg_0_0_4_5_d = arith.constant 5 : index
    %arg_0_0_4_5_v = arith.constant -0.4242129623889923 : f32
    memref.store %arg_0_0_4_5_v, %arg0[%arg_0_0_4_5_a, %arg_0_0_4_5_b, %arg_0_0_4_5_c, %arg_0_0_4_5_d] : memref<1x1x28x28xf32> 
    %arg_0_0_4_6_a = arith.constant 0 : index
    %arg_0_0_4_6_b = arith.constant 0 : index
    %arg_0_0_4_6_c = arith.constant 4 : index
    %arg_0_0_4_6_d = arith.constant 6 : index
    %arg_0_0_4_6_v = arith.constant -0.4242129623889923 : f32
    memref.store %arg_0_0_4_6_v, %arg0[%arg_0_0_4_6_a, %arg_0_0_4_6_b, %arg_0_0_4_6_c, %arg_0_0_4_6_d] : memref<1x1x28x28xf32> 
    %arg_0_0_4_7_a = arith.constant 0 : index
    %arg_0_0_4_7_b = arith.constant 0 : index
    %arg_0_0_4_7_c = arith.constant 4 : index
    %arg_0_0_4_7_d = arith.constant 7 : index
    %arg_0_0_4_7_v = arith.constant -0.4242129623889923 : f32
    memref.store %arg_0_0_4_7_v, %arg0[%arg_0_0_4_7_a, %arg_0_0_4_7_b, %arg_0_0_4_7_c, %arg_0_0_4_7_d] : memref<1x1x28x28xf32> 
    %arg_0_0_4_8_a = arith.constant 0 : index
    %arg_0_0_4_8_b = arith.constant 0 : index
    %arg_0_0_4_8_c = arith.constant 4 : index
    %arg_0_0_4_8_d = arith.constant 8 : index
    %arg_0_0_4_8_v = arith.constant -0.4242129623889923 : f32
    memref.store %arg_0_0_4_8_v, %arg0[%arg_0_0_4_8_a, %arg_0_0_4_8_b, %arg_0_0_4_8_c, %arg_0_0_4_8_d] : memref<1x1x28x28xf32> 
    %arg_0_0_4_9_a = arith.constant 0 : index
    %arg_0_0_4_9_b = arith.constant 0 : index
    %arg_0_0_4_9_c = arith.constant 4 : index
    %arg_0_0_4_9_d = arith.constant 9 : index
    %arg_0_0_4_9_v = arith.constant -0.4242129623889923 : f32
    memref.store %arg_0_0_4_9_v, %arg0[%arg_0_0_4_9_a, %arg_0_0_4_9_b, %arg_0_0_4_9_c, %arg_0_0_4_9_d] : memref<1x1x28x28xf32> 
    %arg_0_0_4_10_a = arith.constant 0 : index
    %arg_0_0_4_10_b = arith.constant 0 : index
    %arg_0_0_4_10_c = arith.constant 4 : index
    %arg_0_0_4_10_d = arith.constant 10 : index
    %arg_0_0_4_10_v = arith.constant -0.4242129623889923 : f32
    memref.store %arg_0_0_4_10_v, %arg0[%arg_0_0_4_10_a, %arg_0_0_4_10_b, %arg_0_0_4_10_c, %arg_0_0_4_10_d] : memref<1x1x28x28xf32> 
    %arg_0_0_4_11_a = arith.constant 0 : index
    %arg_0_0_4_11_b = arith.constant 0 : index
    %arg_0_0_4_11_c = arith.constant 4 : index
    %arg_0_0_4_11_d = arith.constant 11 : index
    %arg_0_0_4_11_v = arith.constant -0.029637714847922325 : f32
    memref.store %arg_0_0_4_11_v, %arg0[%arg_0_0_4_11_a, %arg_0_0_4_11_b, %arg_0_0_4_11_c, %arg_0_0_4_11_d] : memref<1x1x28x28xf32> 
    %arg_0_0_4_12_a = arith.constant 0 : index
    %arg_0_0_4_12_b = arith.constant 0 : index
    %arg_0_0_4_12_c = arith.constant 4 : index
    %arg_0_0_4_12_d = arith.constant 12 : index
    %arg_0_0_4_12_v = arith.constant 0.7467845678329468 : f32
    memref.store %arg_0_0_4_12_v, %arg0[%arg_0_0_4_12_a, %arg_0_0_4_12_b, %arg_0_0_4_12_c, %arg_0_0_4_12_d] : memref<1x1x28x28xf32> 
    %arg_0_0_4_13_a = arith.constant 0 : index
    %arg_0_0_4_13_b = arith.constant 0 : index
    %arg_0_0_4_13_c = arith.constant 4 : index
    %arg_0_0_4_13_d = arith.constant 13 : index
    %arg_0_0_4_13_v = arith.constant 1.7777715921401978 : f32
    memref.store %arg_0_0_4_13_v, %arg0[%arg_0_0_4_13_a, %arg_0_0_4_13_b, %arg_0_0_4_13_c, %arg_0_0_4_13_d] : memref<1x1x28x28xf32> 
    %arg_0_0_4_14_a = arith.constant 0 : index
    %arg_0_0_4_14_b = arith.constant 0 : index
    %arg_0_0_4_14_c = arith.constant 4 : index
    %arg_0_0_4_14_d = arith.constant 14 : index
    %arg_0_0_4_14_v = arith.constant 2.796030282974243 : f32
    memref.store %arg_0_0_4_14_v, %arg0[%arg_0_0_4_14_a, %arg_0_0_4_14_b, %arg_0_0_4_14_c, %arg_0_0_4_14_d] : memref<1x1x28x28xf32> 
    %arg_0_0_4_15_a = arith.constant 0 : index
    %arg_0_0_4_15_b = arith.constant 0 : index
    %arg_0_0_4_15_c = arith.constant 4 : index
    %arg_0_0_4_15_d = arith.constant 15 : index
    %arg_0_0_4_15_v = arith.constant 1.5104787349700928 : f32
    memref.store %arg_0_0_4_15_v, %arg0[%arg_0_0_4_15_a, %arg_0_0_4_15_b, %arg_0_0_4_15_c, %arg_0_0_4_15_d] : memref<1x1x28x28xf32> 
    %arg_0_0_4_16_a = arith.constant 0 : index
    %arg_0_0_4_16_b = arith.constant 0 : index
    %arg_0_0_4_16_c = arith.constant 4 : index
    %arg_0_0_4_16_d = arith.constant 16 : index
    %arg_0_0_4_16_v = arith.constant 1.5104787349700928 : f32
    memref.store %arg_0_0_4_16_v, %arg0[%arg_0_0_4_16_a, %arg_0_0_4_16_b, %arg_0_0_4_16_c, %arg_0_0_4_16_d] : memref<1x1x28x28xf32> 
    %arg_0_0_4_17_a = arith.constant 0 : index
    %arg_0_0_4_17_b = arith.constant 0 : index
    %arg_0_0_4_17_c = arith.constant 4 : index
    %arg_0_0_4_17_d = arith.constant 17 : index
    %arg_0_0_4_17_v = arith.constant 0.36493754386901855 : f32
    memref.store %arg_0_0_4_17_v, %arg0[%arg_0_0_4_17_a, %arg_0_0_4_17_b, %arg_0_0_4_17_c, %arg_0_0_4_17_d] : memref<1x1x28x28xf32> 
    %arg_0_0_4_18_a = arith.constant 0 : index
    %arg_0_0_4_18_b = arith.constant 0 : index
    %arg_0_0_4_18_c = arith.constant 4 : index
    %arg_0_0_4_18_d = arith.constant 18 : index
    %arg_0_0_4_18_v = arith.constant -0.4242129623889923 : f32
    memref.store %arg_0_0_4_18_v, %arg0[%arg_0_0_4_18_a, %arg_0_0_4_18_b, %arg_0_0_4_18_c, %arg_0_0_4_18_d] : memref<1x1x28x28xf32> 
    %arg_0_0_4_19_a = arith.constant 0 : index
    %arg_0_0_4_19_b = arith.constant 0 : index
    %arg_0_0_4_19_c = arith.constant 4 : index
    %arg_0_0_4_19_d = arith.constant 19 : index
    %arg_0_0_4_19_v = arith.constant -0.4242129623889923 : f32
    memref.store %arg_0_0_4_19_v, %arg0[%arg_0_0_4_19_a, %arg_0_0_4_19_b, %arg_0_0_4_19_c, %arg_0_0_4_19_d] : memref<1x1x28x28xf32> 
    %arg_0_0_4_20_a = arith.constant 0 : index
    %arg_0_0_4_20_b = arith.constant 0 : index
    %arg_0_0_4_20_c = arith.constant 4 : index
    %arg_0_0_4_20_d = arith.constant 20 : index
    %arg_0_0_4_20_v = arith.constant -0.4242129623889923 : f32
    memref.store %arg_0_0_4_20_v, %arg0[%arg_0_0_4_20_a, %arg_0_0_4_20_b, %arg_0_0_4_20_c, %arg_0_0_4_20_d] : memref<1x1x28x28xf32> 
    %arg_0_0_4_21_a = arith.constant 0 : index
    %arg_0_0_4_21_b = arith.constant 0 : index
    %arg_0_0_4_21_c = arith.constant 4 : index
    %arg_0_0_4_21_d = arith.constant 21 : index
    %arg_0_0_4_21_v = arith.constant -0.4242129623889923 : f32
    memref.store %arg_0_0_4_21_v, %arg0[%arg_0_0_4_21_a, %arg_0_0_4_21_b, %arg_0_0_4_21_c, %arg_0_0_4_21_d] : memref<1x1x28x28xf32> 
    %arg_0_0_4_22_a = arith.constant 0 : index
    %arg_0_0_4_22_b = arith.constant 0 : index
    %arg_0_0_4_22_c = arith.constant 4 : index
    %arg_0_0_4_22_d = arith.constant 22 : index
    %arg_0_0_4_22_v = arith.constant -0.4242129623889923 : f32
    memref.store %arg_0_0_4_22_v, %arg0[%arg_0_0_4_22_a, %arg_0_0_4_22_b, %arg_0_0_4_22_c, %arg_0_0_4_22_d] : memref<1x1x28x28xf32> 
    %arg_0_0_4_23_a = arith.constant 0 : index
    %arg_0_0_4_23_b = arith.constant 0 : index
    %arg_0_0_4_23_c = arith.constant 4 : index
    %arg_0_0_4_23_d = arith.constant 23 : index
    %arg_0_0_4_23_v = arith.constant -0.4242129623889923 : f32
    memref.store %arg_0_0_4_23_v, %arg0[%arg_0_0_4_23_a, %arg_0_0_4_23_b, %arg_0_0_4_23_c, %arg_0_0_4_23_d] : memref<1x1x28x28xf32> 
    %arg_0_0_4_24_a = arith.constant 0 : index
    %arg_0_0_4_24_b = arith.constant 0 : index
    %arg_0_0_4_24_c = arith.constant 4 : index
    %arg_0_0_4_24_d = arith.constant 24 : index
    %arg_0_0_4_24_v = arith.constant -0.4242129623889923 : f32
    memref.store %arg_0_0_4_24_v, %arg0[%arg_0_0_4_24_a, %arg_0_0_4_24_b, %arg_0_0_4_24_c, %arg_0_0_4_24_d] : memref<1x1x28x28xf32> 
    %arg_0_0_4_25_a = arith.constant 0 : index
    %arg_0_0_4_25_b = arith.constant 0 : index
    %arg_0_0_4_25_c = arith.constant 4 : index
    %arg_0_0_4_25_d = arith.constant 25 : index
    %arg_0_0_4_25_v = arith.constant -0.4242129623889923 : f32
    memref.store %arg_0_0_4_25_v, %arg0[%arg_0_0_4_25_a, %arg_0_0_4_25_b, %arg_0_0_4_25_c, %arg_0_0_4_25_d] : memref<1x1x28x28xf32> 
    %arg_0_0_4_26_a = arith.constant 0 : index
    %arg_0_0_4_26_b = arith.constant 0 : index
    %arg_0_0_4_26_c = arith.constant 4 : index
    %arg_0_0_4_26_d = arith.constant 26 : index
    %arg_0_0_4_26_v = arith.constant -0.4242129623889923 : f32
    memref.store %arg_0_0_4_26_v, %arg0[%arg_0_0_4_26_a, %arg_0_0_4_26_b, %arg_0_0_4_26_c, %arg_0_0_4_26_d] : memref<1x1x28x28xf32> 
    %arg_0_0_4_27_a = arith.constant 0 : index
    %arg_0_0_4_27_b = arith.constant 0 : index
    %arg_0_0_4_27_c = arith.constant 4 : index
    %arg_0_0_4_27_d = arith.constant 27 : index
    %arg_0_0_4_27_v = arith.constant -0.4242129623889923 : f32
    memref.store %arg_0_0_4_27_v, %arg0[%arg_0_0_4_27_a, %arg_0_0_4_27_b, %arg_0_0_4_27_c, %arg_0_0_4_27_d] : memref<1x1x28x28xf32> 
    %arg_0_0_5_0_a = arith.constant 0 : index
    %arg_0_0_5_0_b = arith.constant 0 : index
    %arg_0_0_5_0_c = arith.constant 5 : index
    %arg_0_0_5_0_d = arith.constant 0 : index
    %arg_0_0_5_0_v = arith.constant -0.4242129623889923 : f32
    memref.store %arg_0_0_5_0_v, %arg0[%arg_0_0_5_0_a, %arg_0_0_5_0_b, %arg_0_0_5_0_c, %arg_0_0_5_0_d] : memref<1x1x28x28xf32> 
    %arg_0_0_5_1_a = arith.constant 0 : index
    %arg_0_0_5_1_b = arith.constant 0 : index
    %arg_0_0_5_1_c = arith.constant 5 : index
    %arg_0_0_5_1_d = arith.constant 1 : index
    %arg_0_0_5_1_v = arith.constant -0.4242129623889923 : f32
    memref.store %arg_0_0_5_1_v, %arg0[%arg_0_0_5_1_a, %arg_0_0_5_1_b, %arg_0_0_5_1_c, %arg_0_0_5_1_d] : memref<1x1x28x28xf32> 
    %arg_0_0_5_2_a = arith.constant 0 : index
    %arg_0_0_5_2_b = arith.constant 0 : index
    %arg_0_0_5_2_c = arith.constant 5 : index
    %arg_0_0_5_2_d = arith.constant 2 : index
    %arg_0_0_5_2_v = arith.constant -0.4242129623889923 : f32
    memref.store %arg_0_0_5_2_v, %arg0[%arg_0_0_5_2_a, %arg_0_0_5_2_b, %arg_0_0_5_2_c, %arg_0_0_5_2_d] : memref<1x1x28x28xf32> 
    %arg_0_0_5_3_a = arith.constant 0 : index
    %arg_0_0_5_3_b = arith.constant 0 : index
    %arg_0_0_5_3_c = arith.constant 5 : index
    %arg_0_0_5_3_d = arith.constant 3 : index
    %arg_0_0_5_3_v = arith.constant -0.4242129623889923 : f32
    memref.store %arg_0_0_5_3_v, %arg0[%arg_0_0_5_3_a, %arg_0_0_5_3_b, %arg_0_0_5_3_c, %arg_0_0_5_3_d] : memref<1x1x28x28xf32> 
    %arg_0_0_5_4_a = arith.constant 0 : index
    %arg_0_0_5_4_b = arith.constant 0 : index
    %arg_0_0_5_4_c = arith.constant 5 : index
    %arg_0_0_5_4_d = arith.constant 4 : index
    %arg_0_0_5_4_v = arith.constant -0.4242129623889923 : f32
    memref.store %arg_0_0_5_4_v, %arg0[%arg_0_0_5_4_a, %arg_0_0_5_4_b, %arg_0_0_5_4_c, %arg_0_0_5_4_d] : memref<1x1x28x28xf32> 
    %arg_0_0_5_5_a = arith.constant 0 : index
    %arg_0_0_5_5_b = arith.constant 0 : index
    %arg_0_0_5_5_c = arith.constant 5 : index
    %arg_0_0_5_5_d = arith.constant 5 : index
    %arg_0_0_5_5_v = arith.constant -0.4242129623889923 : f32
    memref.store %arg_0_0_5_5_v, %arg0[%arg_0_0_5_5_a, %arg_0_0_5_5_b, %arg_0_0_5_5_c, %arg_0_0_5_5_d] : memref<1x1x28x28xf32> 
    %arg_0_0_5_6_a = arith.constant 0 : index
    %arg_0_0_5_6_b = arith.constant 0 : index
    %arg_0_0_5_6_c = arith.constant 5 : index
    %arg_0_0_5_6_d = arith.constant 6 : index
    %arg_0_0_5_6_v = arith.constant -0.4242129623889923 : f32
    memref.store %arg_0_0_5_6_v, %arg0[%arg_0_0_5_6_a, %arg_0_0_5_6_b, %arg_0_0_5_6_c, %arg_0_0_5_6_d] : memref<1x1x28x28xf32> 
    %arg_0_0_5_7_a = arith.constant 0 : index
    %arg_0_0_5_7_b = arith.constant 0 : index
    %arg_0_0_5_7_c = arith.constant 5 : index
    %arg_0_0_5_7_d = arith.constant 7 : index
    %arg_0_0_5_7_v = arith.constant -0.4242129623889923 : f32
    memref.store %arg_0_0_5_7_v, %arg0[%arg_0_0_5_7_a, %arg_0_0_5_7_b, %arg_0_0_5_7_c, %arg_0_0_5_7_d] : memref<1x1x28x28xf32> 
    %arg_0_0_5_8_a = arith.constant 0 : index
    %arg_0_0_5_8_b = arith.constant 0 : index
    %arg_0_0_5_8_c = arith.constant 5 : index
    %arg_0_0_5_8_d = arith.constant 8 : index
    %arg_0_0_5_8_v = arith.constant -0.4242129623889923 : f32
    memref.store %arg_0_0_5_8_v, %arg0[%arg_0_0_5_8_a, %arg_0_0_5_8_b, %arg_0_0_5_8_c, %arg_0_0_5_8_d] : memref<1x1x28x28xf32> 
    %arg_0_0_5_9_a = arith.constant 0 : index
    %arg_0_0_5_9_b = arith.constant 0 : index
    %arg_0_0_5_9_c = arith.constant 5 : index
    %arg_0_0_5_9_d = arith.constant 9 : index
    %arg_0_0_5_9_v = arith.constant -0.4242129623889923 : f32
    memref.store %arg_0_0_5_9_v, %arg0[%arg_0_0_5_9_a, %arg_0_0_5_9_b, %arg_0_0_5_9_c, %arg_0_0_5_9_d] : memref<1x1x28x28xf32> 
    %arg_0_0_5_10_a = arith.constant 0 : index
    %arg_0_0_5_10_b = arith.constant 0 : index
    %arg_0_0_5_10_c = arith.constant 5 : index
    %arg_0_0_5_10_d = arith.constant 10 : index
    %arg_0_0_5_10_v = arith.constant 0.09764464199542999 : f32
    memref.store %arg_0_0_5_10_v, %arg0[%arg_0_0_5_10_a, %arg_0_0_5_10_b, %arg_0_0_5_10_c, %arg_0_0_5_10_d] : memref<1x1x28x28xf32> 
    %arg_0_0_5_11_a = arith.constant 0 : index
    %arg_0_0_5_11_b = arith.constant 0 : index
    %arg_0_0_5_11_c = arith.constant 5 : index
    %arg_0_0_5_11_d = arith.constant 11 : index
    %arg_0_0_5_11_v = arith.constant 2.5414655208587646 : f32
    memref.store %arg_0_0_5_11_v, %arg0[%arg_0_0_5_11_a, %arg_0_0_5_11_b, %arg_0_0_5_11_c, %arg_0_0_5_11_d] : memref<1x1x28x28xf32> 
    %arg_0_0_5_12_a = arith.constant 0 : index
    %arg_0_0_5_12_b = arith.constant 0 : index
    %arg_0_0_5_12_c = arith.constant 5 : index
    %arg_0_0_5_12_d = arith.constant 12 : index
    %arg_0_0_5_12_v = arith.constant 2.783302068710327 : f32
    memref.store %arg_0_0_5_12_v, %arg0[%arg_0_0_5_12_a, %arg_0_0_5_12_b, %arg_0_0_5_12_c, %arg_0_0_5_12_d] : memref<1x1x28x28xf32> 
    %arg_0_0_5_13_a = arith.constant 0 : index
    %arg_0_0_5_13_b = arith.constant 0 : index
    %arg_0_0_5_13_c = arith.constant 5 : index
    %arg_0_0_5_13_d = arith.constant 13 : index
    %arg_0_0_5_13_v = arith.constant 2.796030282974243 : f32
    memref.store %arg_0_0_5_13_v, %arg0[%arg_0_0_5_13_a, %arg_0_0_5_13_b, %arg_0_0_5_13_c, %arg_0_0_5_13_d] : memref<1x1x28x28xf32> 
    %arg_0_0_5_14_a = arith.constant 0 : index
    %arg_0_0_5_14_b = arith.constant 0 : index
    %arg_0_0_5_14_c = arith.constant 5 : index
    %arg_0_0_5_14_d = arith.constant 14 : index
    %arg_0_0_5_14_v = arith.constant 2.783302068710327 : f32
    memref.store %arg_0_0_5_14_v, %arg0[%arg_0_0_5_14_a, %arg_0_0_5_14_b, %arg_0_0_5_14_c, %arg_0_0_5_14_d] : memref<1x1x28x28xf32> 
    %arg_0_0_5_15_a = arith.constant 0 : index
    %arg_0_0_5_15_b = arith.constant 0 : index
    %arg_0_0_5_15_c = arith.constant 5 : index
    %arg_0_0_5_15_d = arith.constant 15 : index
    %arg_0_0_5_15_v = arith.constant 2.796030282974243 : f32
    memref.store %arg_0_0_5_15_v, %arg0[%arg_0_0_5_15_a, %arg_0_0_5_15_b, %arg_0_0_5_15_c, %arg_0_0_5_15_d] : memref<1x1x28x28xf32> 
    %arg_0_0_5_16_a = arith.constant 0 : index
    %arg_0_0_5_16_b = arith.constant 0 : index
    %arg_0_0_5_16_c = arith.constant 5 : index
    %arg_0_0_5_16_d = arith.constant 16 : index
    %arg_0_0_5_16_v = arith.constant 2.783302068710327 : f32
    memref.store %arg_0_0_5_16_v, %arg0[%arg_0_0_5_16_a, %arg_0_0_5_16_b, %arg_0_0_5_16_c, %arg_0_0_5_16_d] : memref<1x1x28x28xf32> 
    %arg_0_0_5_17_a = arith.constant 0 : index
    %arg_0_0_5_17_b = arith.constant 0 : index
    %arg_0_0_5_17_c = arith.constant 5 : index
    %arg_0_0_5_17_d = arith.constant 17 : index
    %arg_0_0_5_17_v = arith.constant 2.4141831398010254 : f32
    memref.store %arg_0_0_5_17_v, %arg0[%arg_0_0_5_17_a, %arg_0_0_5_17_b, %arg_0_0_5_17_c, %arg_0_0_5_17_d] : memref<1x1x28x28xf32> 
    %arg_0_0_5_18_a = arith.constant 0 : index
    %arg_0_0_5_18_b = arith.constant 0 : index
    %arg_0_0_5_18_c = arith.constant 5 : index
    %arg_0_0_5_18_d = arith.constant 18 : index
    %arg_0_0_5_18_v = arith.constant 0.6067740321159363 : f32
    memref.store %arg_0_0_5_18_v, %arg0[%arg_0_0_5_18_a, %arg_0_0_5_18_b, %arg_0_0_5_18_c, %arg_0_0_5_18_d] : memref<1x1x28x28xf32> 
    %arg_0_0_5_19_a = arith.constant 0 : index
    %arg_0_0_5_19_b = arith.constant 0 : index
    %arg_0_0_5_19_c = arith.constant 5 : index
    %arg_0_0_5_19_d = arith.constant 19 : index
    %arg_0_0_5_19_v = arith.constant -0.4242129623889923 : f32
    memref.store %arg_0_0_5_19_v, %arg0[%arg_0_0_5_19_a, %arg_0_0_5_19_b, %arg_0_0_5_19_c, %arg_0_0_5_19_d] : memref<1x1x28x28xf32> 
    %arg_0_0_5_20_a = arith.constant 0 : index
    %arg_0_0_5_20_b = arith.constant 0 : index
    %arg_0_0_5_20_c = arith.constant 5 : index
    %arg_0_0_5_20_d = arith.constant 20 : index
    %arg_0_0_5_20_v = arith.constant -0.4242129623889923 : f32
    memref.store %arg_0_0_5_20_v, %arg0[%arg_0_0_5_20_a, %arg_0_0_5_20_b, %arg_0_0_5_20_c, %arg_0_0_5_20_d] : memref<1x1x28x28xf32> 
    %arg_0_0_5_21_a = arith.constant 0 : index
    %arg_0_0_5_21_b = arith.constant 0 : index
    %arg_0_0_5_21_c = arith.constant 5 : index
    %arg_0_0_5_21_d = arith.constant 21 : index
    %arg_0_0_5_21_v = arith.constant -0.4242129623889923 : f32
    memref.store %arg_0_0_5_21_v, %arg0[%arg_0_0_5_21_a, %arg_0_0_5_21_b, %arg_0_0_5_21_c, %arg_0_0_5_21_d] : memref<1x1x28x28xf32> 
    %arg_0_0_5_22_a = arith.constant 0 : index
    %arg_0_0_5_22_b = arith.constant 0 : index
    %arg_0_0_5_22_c = arith.constant 5 : index
    %arg_0_0_5_22_d = arith.constant 22 : index
    %arg_0_0_5_22_v = arith.constant -0.4242129623889923 : f32
    memref.store %arg_0_0_5_22_v, %arg0[%arg_0_0_5_22_a, %arg_0_0_5_22_b, %arg_0_0_5_22_c, %arg_0_0_5_22_d] : memref<1x1x28x28xf32> 
    %arg_0_0_5_23_a = arith.constant 0 : index
    %arg_0_0_5_23_b = arith.constant 0 : index
    %arg_0_0_5_23_c = arith.constant 5 : index
    %arg_0_0_5_23_d = arith.constant 23 : index
    %arg_0_0_5_23_v = arith.constant -0.4242129623889923 : f32
    memref.store %arg_0_0_5_23_v, %arg0[%arg_0_0_5_23_a, %arg_0_0_5_23_b, %arg_0_0_5_23_c, %arg_0_0_5_23_d] : memref<1x1x28x28xf32> 
    %arg_0_0_5_24_a = arith.constant 0 : index
    %arg_0_0_5_24_b = arith.constant 0 : index
    %arg_0_0_5_24_c = arith.constant 5 : index
    %arg_0_0_5_24_d = arith.constant 24 : index
    %arg_0_0_5_24_v = arith.constant -0.4242129623889923 : f32
    memref.store %arg_0_0_5_24_v, %arg0[%arg_0_0_5_24_a, %arg_0_0_5_24_b, %arg_0_0_5_24_c, %arg_0_0_5_24_d] : memref<1x1x28x28xf32> 
    %arg_0_0_5_25_a = arith.constant 0 : index
    %arg_0_0_5_25_b = arith.constant 0 : index
    %arg_0_0_5_25_c = arith.constant 5 : index
    %arg_0_0_5_25_d = arith.constant 25 : index
    %arg_0_0_5_25_v = arith.constant -0.4242129623889923 : f32
    memref.store %arg_0_0_5_25_v, %arg0[%arg_0_0_5_25_a, %arg_0_0_5_25_b, %arg_0_0_5_25_c, %arg_0_0_5_25_d] : memref<1x1x28x28xf32> 
    %arg_0_0_5_26_a = arith.constant 0 : index
    %arg_0_0_5_26_b = arith.constant 0 : index
    %arg_0_0_5_26_c = arith.constant 5 : index
    %arg_0_0_5_26_d = arith.constant 26 : index
    %arg_0_0_5_26_v = arith.constant -0.4242129623889923 : f32
    memref.store %arg_0_0_5_26_v, %arg0[%arg_0_0_5_26_a, %arg_0_0_5_26_b, %arg_0_0_5_26_c, %arg_0_0_5_26_d] : memref<1x1x28x28xf32> 
    %arg_0_0_5_27_a = arith.constant 0 : index
    %arg_0_0_5_27_b = arith.constant 0 : index
    %arg_0_0_5_27_c = arith.constant 5 : index
    %arg_0_0_5_27_d = arith.constant 27 : index
    %arg_0_0_5_27_v = arith.constant -0.4242129623889923 : f32
    memref.store %arg_0_0_5_27_v, %arg0[%arg_0_0_5_27_a, %arg_0_0_5_27_b, %arg_0_0_5_27_c, %arg_0_0_5_27_d] : memref<1x1x28x28xf32> 
    %arg_0_0_6_0_a = arith.constant 0 : index
    %arg_0_0_6_0_b = arith.constant 0 : index
    %arg_0_0_6_0_c = arith.constant 6 : index
    %arg_0_0_6_0_d = arith.constant 0 : index
    %arg_0_0_6_0_v = arith.constant -0.4242129623889923 : f32
    memref.store %arg_0_0_6_0_v, %arg0[%arg_0_0_6_0_a, %arg_0_0_6_0_b, %arg_0_0_6_0_c, %arg_0_0_6_0_d] : memref<1x1x28x28xf32> 
    %arg_0_0_6_1_a = arith.constant 0 : index
    %arg_0_0_6_1_b = arith.constant 0 : index
    %arg_0_0_6_1_c = arith.constant 6 : index
    %arg_0_0_6_1_d = arith.constant 1 : index
    %arg_0_0_6_1_v = arith.constant -0.4242129623889923 : f32
    memref.store %arg_0_0_6_1_v, %arg0[%arg_0_0_6_1_a, %arg_0_0_6_1_b, %arg_0_0_6_1_c, %arg_0_0_6_1_d] : memref<1x1x28x28xf32> 
    %arg_0_0_6_2_a = arith.constant 0 : index
    %arg_0_0_6_2_b = arith.constant 0 : index
    %arg_0_0_6_2_c = arith.constant 6 : index
    %arg_0_0_6_2_d = arith.constant 2 : index
    %arg_0_0_6_2_v = arith.constant -0.4242129623889923 : f32
    memref.store %arg_0_0_6_2_v, %arg0[%arg_0_0_6_2_a, %arg_0_0_6_2_b, %arg_0_0_6_2_c, %arg_0_0_6_2_d] : memref<1x1x28x28xf32> 
    %arg_0_0_6_3_a = arith.constant 0 : index
    %arg_0_0_6_3_b = arith.constant 0 : index
    %arg_0_0_6_3_c = arith.constant 6 : index
    %arg_0_0_6_3_d = arith.constant 3 : index
    %arg_0_0_6_3_v = arith.constant -0.4242129623889923 : f32
    memref.store %arg_0_0_6_3_v, %arg0[%arg_0_0_6_3_a, %arg_0_0_6_3_b, %arg_0_0_6_3_c, %arg_0_0_6_3_d] : memref<1x1x28x28xf32> 
    %arg_0_0_6_4_a = arith.constant 0 : index
    %arg_0_0_6_4_b = arith.constant 0 : index
    %arg_0_0_6_4_c = arith.constant 6 : index
    %arg_0_0_6_4_d = arith.constant 4 : index
    %arg_0_0_6_4_v = arith.constant -0.4242129623889923 : f32
    memref.store %arg_0_0_6_4_v, %arg0[%arg_0_0_6_4_a, %arg_0_0_6_4_b, %arg_0_0_6_4_c, %arg_0_0_6_4_d] : memref<1x1x28x28xf32> 
    %arg_0_0_6_5_a = arith.constant 0 : index
    %arg_0_0_6_5_b = arith.constant 0 : index
    %arg_0_0_6_5_c = arith.constant 6 : index
    %arg_0_0_6_5_d = arith.constant 5 : index
    %arg_0_0_6_5_v = arith.constant -0.4242129623889923 : f32
    memref.store %arg_0_0_6_5_v, %arg0[%arg_0_0_6_5_a, %arg_0_0_6_5_b, %arg_0_0_6_5_c, %arg_0_0_6_5_d] : memref<1x1x28x28xf32> 
    %arg_0_0_6_6_a = arith.constant 0 : index
    %arg_0_0_6_6_b = arith.constant 0 : index
    %arg_0_0_6_6_c = arith.constant 6 : index
    %arg_0_0_6_6_d = arith.constant 6 : index
    %arg_0_0_6_6_v = arith.constant -0.4242129623889923 : f32
    memref.store %arg_0_0_6_6_v, %arg0[%arg_0_0_6_6_a, %arg_0_0_6_6_b, %arg_0_0_6_6_c, %arg_0_0_6_6_d] : memref<1x1x28x28xf32> 
    %arg_0_0_6_7_a = arith.constant 0 : index
    %arg_0_0_6_7_b = arith.constant 0 : index
    %arg_0_0_6_7_c = arith.constant 6 : index
    %arg_0_0_6_7_d = arith.constant 7 : index
    %arg_0_0_6_7_v = arith.constant -0.4242129623889923 : f32
    memref.store %arg_0_0_6_7_v, %arg0[%arg_0_0_6_7_a, %arg_0_0_6_7_b, %arg_0_0_6_7_c, %arg_0_0_6_7_d] : memref<1x1x28x28xf32> 
    %arg_0_0_6_8_a = arith.constant 0 : index
    %arg_0_0_6_8_b = arith.constant 0 : index
    %arg_0_0_6_8_c = arith.constant 6 : index
    %arg_0_0_6_8_d = arith.constant 8 : index
    %arg_0_0_6_8_v = arith.constant -0.4242129623889923 : f32
    memref.store %arg_0_0_6_8_v, %arg0[%arg_0_0_6_8_a, %arg_0_0_6_8_b, %arg_0_0_6_8_c, %arg_0_0_6_8_d] : memref<1x1x28x28xf32> 
    %arg_0_0_6_9_a = arith.constant 0 : index
    %arg_0_0_6_9_b = arith.constant 0 : index
    %arg_0_0_6_9_c = arith.constant 6 : index
    %arg_0_0_6_9_d = arith.constant 9 : index
    %arg_0_0_6_9_v = arith.constant 0.4922199249267578 : f32
    memref.store %arg_0_0_6_9_v, %arg0[%arg_0_0_6_9_a, %arg_0_0_6_9_b, %arg_0_0_6_9_c, %arg_0_0_6_9_d] : memref<1x1x28x28xf32> 
    %arg_0_0_6_10_a = arith.constant 0 : index
    %arg_0_0_6_10_b = arith.constant 0 : index
    %arg_0_0_6_10_c = arith.constant 6 : index
    %arg_0_0_6_10_d = arith.constant 10 : index
    %arg_0_0_6_10_v = arith.constant 2.5414655208587646 : f32
    memref.store %arg_0_0_6_10_v, %arg0[%arg_0_0_6_10_a, %arg_0_0_6_10_b, %arg_0_0_6_10_c, %arg_0_0_6_10_d] : memref<1x1x28x28xf32> 
    %arg_0_0_6_11_a = arith.constant 0 : index
    %arg_0_0_6_11_b = arith.constant 0 : index
    %arg_0_0_6_11_c = arith.constant 6 : index
    %arg_0_0_6_11_d = arith.constant 11 : index
    %arg_0_0_6_11_v = arith.constant 2.808758497238159 : f32
    memref.store %arg_0_0_6_11_v, %arg0[%arg_0_0_6_11_a, %arg_0_0_6_11_b, %arg_0_0_6_11_c, %arg_0_0_6_11_d] : memref<1x1x28x28xf32> 
    %arg_0_0_6_12_a = arith.constant 0 : index
    %arg_0_0_6_12_b = arith.constant 0 : index
    %arg_0_0_6_12_c = arith.constant 6 : index
    %arg_0_0_6_12_d = arith.constant 12 : index
    %arg_0_0_6_12_v = arith.constant 1.7650433778762817 : f32
    memref.store %arg_0_0_6_12_v, %arg0[%arg_0_0_6_12_a, %arg_0_0_6_12_b, %arg_0_0_6_12_c, %arg_0_0_6_12_d] : memref<1x1x28x28xf32> 
    %arg_0_0_6_13_a = arith.constant 0 : index
    %arg_0_0_6_13_b = arith.constant 0 : index
    %arg_0_0_6_13_c = arith.constant 6 : index
    %arg_0_0_6_13_d = arith.constant 13 : index
    %arg_0_0_6_13_v = arith.constant -0.4242129623889923 : f32
    memref.store %arg_0_0_6_13_v, %arg0[%arg_0_0_6_13_a, %arg_0_0_6_13_b, %arg_0_0_6_13_c, %arg_0_0_6_13_d] : memref<1x1x28x28xf32> 
    %arg_0_0_6_14_a = arith.constant 0 : index
    %arg_0_0_6_14_b = arith.constant 0 : index
    %arg_0_0_6_14_c = arith.constant 6 : index
    %arg_0_0_6_14_d = arith.constant 14 : index
    %arg_0_0_6_14_v = arith.constant -0.4242129623889923 : f32
    memref.store %arg_0_0_6_14_v, %arg0[%arg_0_0_6_14_a, %arg_0_0_6_14_b, %arg_0_0_6_14_c, %arg_0_0_6_14_d] : memref<1x1x28x28xf32> 
    %arg_0_0_6_15_a = arith.constant 0 : index
    %arg_0_0_6_15_b = arith.constant 0 : index
    %arg_0_0_6_15_c = arith.constant 6 : index
    %arg_0_0_6_15_d = arith.constant 15 : index
    %arg_0_0_6_15_v = arith.constant 2.0323362350463867 : f32
    memref.store %arg_0_0_6_15_v, %arg0[%arg_0_0_6_15_a, %arg_0_0_6_15_b, %arg_0_0_6_15_c, %arg_0_0_6_15_d] : memref<1x1x28x28xf32> 
    %arg_0_0_6_16_a = arith.constant 0 : index
    %arg_0_0_6_16_b = arith.constant 0 : index
    %arg_0_0_6_16_c = arith.constant 6 : index
    %arg_0_0_6_16_d = arith.constant 16 : index
    %arg_0_0_6_16_v = arith.constant 2.796030282974243 : f32
    memref.store %arg_0_0_6_16_v, %arg0[%arg_0_0_6_16_a, %arg_0_0_6_16_b, %arg_0_0_6_16_c, %arg_0_0_6_16_d] : memref<1x1x28x28xf32> 
    %arg_0_0_6_17_a = arith.constant 0 : index
    %arg_0_0_6_17_b = arith.constant 0 : index
    %arg_0_0_6_17_c = arith.constant 6 : index
    %arg_0_0_6_17_d = arith.constant 17 : index
    %arg_0_0_6_17_v = arith.constant 2.808758497238159 : f32
    memref.store %arg_0_0_6_17_v, %arg0[%arg_0_0_6_17_a, %arg_0_0_6_17_b, %arg_0_0_6_17_c, %arg_0_0_6_17_d] : memref<1x1x28x28xf32> 
    %arg_0_0_6_18_a = arith.constant 0 : index
    %arg_0_0_6_18_b = arith.constant 0 : index
    %arg_0_0_6_18_c = arith.constant 6 : index
    %arg_0_0_6_18_d = arith.constant 18 : index
    %arg_0_0_6_18_v = arith.constant 2.2869009971618652 : f32
    memref.store %arg_0_0_6_18_v, %arg0[%arg_0_0_6_18_a, %arg_0_0_6_18_b, %arg_0_0_6_18_c, %arg_0_0_6_18_d] : memref<1x1x28x28xf32> 
    %arg_0_0_6_19_a = arith.constant 0 : index
    %arg_0_0_6_19_b = arith.constant 0 : index
    %arg_0_0_6_19_c = arith.constant 6 : index
    %arg_0_0_6_19_d = arith.constant 19 : index
    %arg_0_0_6_19_v = arith.constant -0.15692004561424255 : f32
    memref.store %arg_0_0_6_19_v, %arg0[%arg_0_0_6_19_a, %arg_0_0_6_19_b, %arg_0_0_6_19_c, %arg_0_0_6_19_d] : memref<1x1x28x28xf32> 
    %arg_0_0_6_20_a = arith.constant 0 : index
    %arg_0_0_6_20_b = arith.constant 0 : index
    %arg_0_0_6_20_c = arith.constant 6 : index
    %arg_0_0_6_20_d = arith.constant 20 : index
    %arg_0_0_6_20_v = arith.constant -0.4242129623889923 : f32
    memref.store %arg_0_0_6_20_v, %arg0[%arg_0_0_6_20_a, %arg_0_0_6_20_b, %arg_0_0_6_20_c, %arg_0_0_6_20_d] : memref<1x1x28x28xf32> 
    %arg_0_0_6_21_a = arith.constant 0 : index
    %arg_0_0_6_21_b = arith.constant 0 : index
    %arg_0_0_6_21_c = arith.constant 6 : index
    %arg_0_0_6_21_d = arith.constant 21 : index
    %arg_0_0_6_21_v = arith.constant -0.4242129623889923 : f32
    memref.store %arg_0_0_6_21_v, %arg0[%arg_0_0_6_21_a, %arg_0_0_6_21_b, %arg_0_0_6_21_c, %arg_0_0_6_21_d] : memref<1x1x28x28xf32> 
    %arg_0_0_6_22_a = arith.constant 0 : index
    %arg_0_0_6_22_b = arith.constant 0 : index
    %arg_0_0_6_22_c = arith.constant 6 : index
    %arg_0_0_6_22_d = arith.constant 22 : index
    %arg_0_0_6_22_v = arith.constant -0.4242129623889923 : f32
    memref.store %arg_0_0_6_22_v, %arg0[%arg_0_0_6_22_a, %arg_0_0_6_22_b, %arg_0_0_6_22_c, %arg_0_0_6_22_d] : memref<1x1x28x28xf32> 
    %arg_0_0_6_23_a = arith.constant 0 : index
    %arg_0_0_6_23_b = arith.constant 0 : index
    %arg_0_0_6_23_c = arith.constant 6 : index
    %arg_0_0_6_23_d = arith.constant 23 : index
    %arg_0_0_6_23_v = arith.constant -0.4242129623889923 : f32
    memref.store %arg_0_0_6_23_v, %arg0[%arg_0_0_6_23_a, %arg_0_0_6_23_b, %arg_0_0_6_23_c, %arg_0_0_6_23_d] : memref<1x1x28x28xf32> 
    %arg_0_0_6_24_a = arith.constant 0 : index
    %arg_0_0_6_24_b = arith.constant 0 : index
    %arg_0_0_6_24_c = arith.constant 6 : index
    %arg_0_0_6_24_d = arith.constant 24 : index
    %arg_0_0_6_24_v = arith.constant -0.4242129623889923 : f32
    memref.store %arg_0_0_6_24_v, %arg0[%arg_0_0_6_24_a, %arg_0_0_6_24_b, %arg_0_0_6_24_c, %arg_0_0_6_24_d] : memref<1x1x28x28xf32> 
    %arg_0_0_6_25_a = arith.constant 0 : index
    %arg_0_0_6_25_b = arith.constant 0 : index
    %arg_0_0_6_25_c = arith.constant 6 : index
    %arg_0_0_6_25_d = arith.constant 25 : index
    %arg_0_0_6_25_v = arith.constant -0.4242129623889923 : f32
    memref.store %arg_0_0_6_25_v, %arg0[%arg_0_0_6_25_a, %arg_0_0_6_25_b, %arg_0_0_6_25_c, %arg_0_0_6_25_d] : memref<1x1x28x28xf32> 
    %arg_0_0_6_26_a = arith.constant 0 : index
    %arg_0_0_6_26_b = arith.constant 0 : index
    %arg_0_0_6_26_c = arith.constant 6 : index
    %arg_0_0_6_26_d = arith.constant 26 : index
    %arg_0_0_6_26_v = arith.constant -0.4242129623889923 : f32
    memref.store %arg_0_0_6_26_v, %arg0[%arg_0_0_6_26_a, %arg_0_0_6_26_b, %arg_0_0_6_26_c, %arg_0_0_6_26_d] : memref<1x1x28x28xf32> 
    %arg_0_0_6_27_a = arith.constant 0 : index
    %arg_0_0_6_27_b = arith.constant 0 : index
    %arg_0_0_6_27_c = arith.constant 6 : index
    %arg_0_0_6_27_d = arith.constant 27 : index
    %arg_0_0_6_27_v = arith.constant -0.4242129623889923 : f32
    memref.store %arg_0_0_6_27_v, %arg0[%arg_0_0_6_27_a, %arg_0_0_6_27_b, %arg_0_0_6_27_c, %arg_0_0_6_27_d] : memref<1x1x28x28xf32> 
    %arg_0_0_7_0_a = arith.constant 0 : index
    %arg_0_0_7_0_b = arith.constant 0 : index
    %arg_0_0_7_0_c = arith.constant 7 : index
    %arg_0_0_7_0_d = arith.constant 0 : index
…
    memref.store %p193_15031_v, %15[%p193_15031_a, %p193_15031_b, %p193_15031_c, %p193_15031_d] : memref<16x4x4x10xf32> 
    %p193_15032_a = arith.constant 15 : index
    %p193_15032_b = arith.constant 0 : index
    %p193_15032_c = arith.constant 3 : index
    %p193_15032_d = arith.constant 2 : index
    %p193_15032_v = arith.constant -0.17216959595680237 : f32
    memref.store %p193_15032_v, %15[%p193_15032_a, %p193_15032_b, %p193_15032_c, %p193_15032_d] : memref<16x4x4x10xf32> 
    %p193_15033_a = arith.constant 15 : index
    %p193_15033_b = arith.constant 0 : index
    %p193_15033_c = arith.constant 3 : index
    %p193_15033_d = arith.constant 3 : index
    %p193_15033_v = arith.constant 0.05367553234100342 : f32
    memref.store %p193_15033_v, %15[%p193_15033_a, %p193_15033_b, %p193_15033_c, %p193_15033_d] : memref<16x4x4x10xf32> 
    %p193_15034_a = arith.constant 15 : index
    %p193_15034_b = arith.constant 0 : index
    %p193_15034_c = arith.constant 3 : index
    %p193_15034_d = arith.constant 4 : index
    %p193_15034_v = arith.constant 0.06697092205286026 : f32
    memref.store %p193_15034_v, %15[%p193_15034_a, %p193_15034_b, %p193_15034_c, %p193_15034_d] : memref<16x4x4x10xf32> 
    %p193_15035_a = arith.constant 15 : index
    %p193_15035_b = arith.constant 0 : index
    %p193_15035_c = arith.constant 3 : index
    %p193_15035_d = arith.constant 5 : index
    %p193_15035_v = arith.constant 0.02216830477118492 : f32
    memref.store %p193_15035_v, %15[%p193_15035_a, %p193_15035_b, %p193_15035_c, %p193_15035_d] : memref<16x4x4x10xf32> 
    %p193_15036_a = arith.constant 15 : index
    %p193_15036_b = arith.constant 0 : index
    %p193_15036_c = arith.constant 3 : index
    %p193_15036_d = arith.constant 6 : index
    %p193_15036_v = arith.constant -0.00030509542557410896 : f32
    memref.store %p193_15036_v, %15[%p193_15036_a, %p193_15036_b, %p193_15036_c, %p193_15036_d] : memref<16x4x4x10xf32> 
    %p193_15037_a = arith.constant 15 : index
    %p193_15037_b = arith.constant 0 : index
    %p193_15037_c = arith.constant 3 : index
    %p193_15037_d = arith.constant 7 : index
    %p193_15037_v = arith.constant -0.03204747661948204 : f32
    memref.store %p193_15037_v, %15[%p193_15037_a, %p193_15037_b, %p193_15037_c, %p193_15037_d] : memref<16x4x4x10xf32> 
    %p193_15038_a = arith.constant 15 : index
    %p193_15038_b = arith.constant 0 : index
    %p193_15038_c = arith.constant 3 : index
    %p193_15038_d = arith.constant 8 : index
    %p193_15038_v = arith.constant -0.05957604944705963 : f32
    memref.store %p193_15038_v, %15[%p193_15038_a, %p193_15038_b, %p193_15038_c, %p193_15038_d] : memref<16x4x4x10xf32> 
    %p193_15039_a = arith.constant 15 : index
    %p193_15039_b = arith.constant 0 : index
    %p193_15039_c = arith.constant 3 : index
    %p193_15039_d = arith.constant 9 : index
    %p193_15039_v = arith.constant 0.06665488332509995 : f32
    memref.store %p193_15039_v, %15[%p193_15039_a, %p193_15039_b, %p193_15039_c, %p193_15039_d] : memref<16x4x4x10xf32> 
    %p193_15100_a = arith.constant 15 : index
    %p193_15100_b = arith.constant 1 : index
    %p193_15100_c = arith.constant 0 : index
    %p193_15100_d = arith.constant 0 : index
    %p193_15100_v = arith.constant 0.03787767142057419 : f32
    memref.store %p193_15100_v, %15[%p193_15100_a, %p193_15100_b, %p193_15100_c, %p193_15100_d] : memref<16x4x4x10xf32> 
    %p193_15101_a = arith.constant 15 : index
    %p193_15101_b = arith.constant 1 : index
    %p193_15101_c = arith.constant 0 : index
    %p193_15101_d = arith.constant 1 : index
    %p193_15101_v = arith.constant -0.072029247879982 : f32
    memref.store %p193_15101_v, %15[%p193_15101_a, %p193_15101_b, %p193_15101_c, %p193_15101_d] : memref<16x4x4x10xf32> 
    %p193_15102_a = arith.constant 15 : index
    %p193_15102_b = arith.constant 1 : index
    %p193_15102_c = arith.constant 0 : index
    %p193_15102_d = arith.constant 2 : index
    %p193_15102_v = arith.constant -0.014508004300296307 : f32
    memref.store %p193_15102_v, %15[%p193_15102_a, %p193_15102_b, %p193_15102_c, %p193_15102_d] : memref<16x4x4x10xf32> 
    %p193_15103_a = arith.constant 15 : index
    %p193_15103_b = arith.constant 1 : index
    %p193_15103_c = arith.constant 0 : index
    %p193_15103_d = arith.constant 3 : index
    %p193_15103_v = arith.constant -0.09897033870220184 : f32
    memref.store %p193_15103_v, %15[%p193_15103_a, %p193_15103_b, %p193_15103_c, %p193_15103_d] : memref<16x4x4x10xf32> 
    %p193_15104_a = arith.constant 15 : index
    %p193_15104_b = arith.constant 1 : index
    %p193_15104_c = arith.constant 0 : index
    %p193_15104_d = arith.constant 4 : index
    %p193_15104_v = arith.constant -0.0582190677523613 : f32
    memref.store %p193_15104_v, %15[%p193_15104_a, %p193_15104_b, %p193_15104_c, %p193_15104_d] : memref<16x4x4x10xf32> 
    %p193_15105_a = arith.constant 15 : index
    %p193_15105_b = arith.constant 1 : index
    %p193_15105_c = arith.constant 0 : index
    %p193_15105_d = arith.constant 5 : index
    %p193_15105_v = arith.constant -0.06957041472196579 : f32
    memref.store %p193_15105_v, %15[%p193_15105_a, %p193_15105_b, %p193_15105_c, %p193_15105_d] : memref<16x4x4x10xf32> 
    %p193_15106_a = arith.constant 15 : index
    %p193_15106_b = arith.constant 1 : index
    %p193_15106_c = arith.constant 0 : index
    %p193_15106_d = arith.constant 6 : index
    %p193_15106_v = arith.constant -0.06247461959719658 : f32
    memref.store %p193_15106_v, %15[%p193_15106_a, %p193_15106_b, %p193_15106_c, %p193_15106_d] : memref<16x4x4x10xf32> 
    %p193_15107_a = arith.constant 15 : index
    %p193_15107_b = arith.constant 1 : index
    %p193_15107_c = arith.constant 0 : index
    %p193_15107_d = arith.constant 7 : index
    %p193_15107_v = arith.constant -0.10950496792793274 : f32
    memref.store %p193_15107_v, %15[%p193_15107_a, %p193_15107_b, %p193_15107_c, %p193_15107_d] : memref<16x4x4x10xf32> 
    %p193_15108_a = arith.constant 15 : index
    %p193_15108_b = arith.constant 1 : index
    %p193_15108_c = arith.constant 0 : index
    %p193_15108_d = arith.constant 8 : index
    %p193_15108_v = arith.constant 0.13651923835277557 : f32
    memref.store %p193_15108_v, %15[%p193_15108_a, %p193_15108_b, %p193_15108_c, %p193_15108_d] : memref<16x4x4x10xf32> 
    %p193_15109_a = arith.constant 15 : index
    %p193_15109_b = arith.constant 1 : index
    %p193_15109_c = arith.constant 0 : index
    %p193_15109_d = arith.constant 9 : index
    %p193_15109_v = arith.constant 0.10640163719654083 : f32
    memref.store %p193_15109_v, %15[%p193_15109_a, %p193_15109_b, %p193_15109_c, %p193_15109_d] : memref<16x4x4x10xf32> 
    %p193_15110_a = arith.constant 15 : index
    %p193_15110_b = arith.constant 1 : index
    %p193_15110_c = arith.constant 1 : index
    %p193_15110_d = arith.constant 0 : index
    %p193_15110_v = arith.constant -0.16996562480926514 : f32
    memref.store %p193_15110_v, %15[%p193_15110_a, %p193_15110_b, %p193_15110_c, %p193_15110_d] : memref<16x4x4x10xf32> 
    %p193_15111_a = arith.constant 15 : index
    %p193_15111_b = arith.constant 1 : index
    %p193_15111_c = arith.constant 1 : index
    %p193_15111_d = arith.constant 1 : index
    %p193_15111_v = arith.constant -0.19217419624328613 : f32
    memref.store %p193_15111_v, %15[%p193_15111_a, %p193_15111_b, %p193_15111_c, %p193_15111_d] : memref<16x4x4x10xf32> 
    %p193_15112_a = arith.constant 15 : index
    %p193_15112_b = arith.constant 1 : index
    %p193_15112_c = arith.constant 1 : index
    %p193_15112_d = arith.constant 2 : index
    %p193_15112_v = arith.constant -0.31112247705459595 : f32
    memref.store %p193_15112_v, %15[%p193_15112_a, %p193_15112_b, %p193_15112_c, %p193_15112_d] : memref<16x4x4x10xf32> 
    %p193_15113_a = arith.constant 15 : index
    %p193_15113_b = arith.constant 1 : index
    %p193_15113_c = arith.constant 1 : index
    %p193_15113_d = arith.constant 3 : index
    %p193_15113_v = arith.constant -0.06670261174440384 : f32
    memref.store %p193_15113_v, %15[%p193_15113_a, %p193_15113_b, %p193_15113_c, %p193_15113_d] : memref<16x4x4x10xf32> 
    %p193_15114_a = arith.constant 15 : index
    %p193_15114_b = arith.constant 1 : index
    %p193_15114_c = arith.constant 1 : index
    %p193_15114_d = arith.constant 4 : index
    %p193_15114_v = arith.constant 0.26814502477645874 : f32
    memref.store %p193_15114_v, %15[%p193_15114_a, %p193_15114_b, %p193_15114_c, %p193_15114_d] : memref<16x4x4x10xf32> 
    %p193_15115_a = arith.constant 15 : index
    %p193_15115_b = arith.constant 1 : index
    %p193_15115_c = arith.constant 1 : index
    %p193_15115_d = arith.constant 5 : index
    %p193_15115_v = arith.constant -0.18611367046833038 : f32
    memref.store %p193_15115_v, %15[%p193_15115_a, %p193_15115_b, %p193_15115_c, %p193_15115_d] : memref<16x4x4x10xf32> 
    %p193_15116_a = arith.constant 15 : index
    %p193_15116_b = arith.constant 1 : index
    %p193_15116_c = arith.constant 1 : index
    %p193_15116_d = arith.constant 6 : index
    %p193_15116_v = arith.constant 0.39766421914100647 : f32
    memref.store %p193_15116_v, %15[%p193_15116_a, %p193_15116_b, %p193_15116_c, %p193_15116_d] : memref<16x4x4x10xf32> 
    %p193_15117_a = arith.constant 15 : index
    %p193_15117_b = arith.constant 1 : index
    %p193_15117_c = arith.constant 1 : index
    %p193_15117_d = arith.constant 7 : index
    %p193_15117_v = arith.constant 0.02332381159067154 : f32
    memref.store %p193_15117_v, %15[%p193_15117_a, %p193_15117_b, %p193_15117_c, %p193_15117_d] : memref<16x4x4x10xf32> 
    %p193_15118_a = arith.constant 15 : index
    %p193_15118_b = arith.constant 1 : index
    %p193_15118_c = arith.constant 1 : index
    %p193_15118_d = arith.constant 8 : index
    %p193_15118_v = arith.constant 0.05767787992954254 : f32
    memref.store %p193_15118_v, %15[%p193_15118_a, %p193_15118_b, %p193_15118_c, %p193_15118_d] : memref<16x4x4x10xf32> 
    %p193_15119_a = arith.constant 15 : index
    %p193_15119_b = arith.constant 1 : index
    %p193_15119_c = arith.constant 1 : index
    %p193_15119_d = arith.constant 9 : index
    %p193_15119_v = arith.constant 0.21727587282657623 : f32
    memref.store %p193_15119_v, %15[%p193_15119_a, %p193_15119_b, %p193_15119_c, %p193_15119_d] : memref<16x4x4x10xf32> 
    %p193_15120_a = arith.constant 15 : index
    %p193_15120_b = arith.constant 1 : index
    %p193_15120_c = arith.constant 2 : index
    %p193_15120_d = arith.constant 0 : index
    %p193_15120_v = arith.constant 0.26092052459716797 : f32
    memref.store %p193_15120_v, %15[%p193_15120_a, %p193_15120_b, %p193_15120_c, %p193_15120_d] : memref<16x4x4x10xf32> 
    %p193_15121_a = arith.constant 15 : index
    %p193_15121_b = arith.constant 1 : index
    %p193_15121_c = arith.constant 2 : index
    %p193_15121_d = arith.constant 1 : index
    %p193_15121_v = arith.constant 0.0665898397564888 : f32
    memref.store %p193_15121_v, %15[%p193_15121_a, %p193_15121_b, %p193_15121_c, %p193_15121_d] : memref<16x4x4x10xf32> 
    %p193_15122_a = arith.constant 15 : index
    %p193_15122_b = arith.constant 1 : index
    %p193_15122_c = arith.constant 2 : index
    %p193_15122_d = arith.constant 2 : index
    %p193_15122_v = arith.constant 0.0050725629553198814 : f32
    memref.store %p193_15122_v, %15[%p193_15122_a, %p193_15122_b, %p193_15122_c, %p193_15122_d] : memref<16x4x4x10xf32> 
    %p193_15123_a = arith.constant 15 : index
    %p193_15123_b = arith.constant 1 : index
    %p193_15123_c = arith.constant 2 : index
    %p193_15123_d = arith.constant 3 : index
    %p193_15123_v = arith.constant -0.5116416811943054 : f32
    memref.store %p193_15123_v, %15[%p193_15123_a, %p193_15123_b, %p193_15123_c, %p193_15123_d] : memref<16x4x4x10xf32> 
    %p193_15124_a = arith.constant 15 : index
    %p193_15124_b = arith.constant 1 : index
    %p193_15124_c = arith.constant 2 : index
    %p193_15124_d = arith.constant 4 : index
    %p193_15124_v = arith.constant -0.036236438900232315 : f32
    memref.store %p193_15124_v, %15[%p193_15124_a, %p193_15124_b, %p193_15124_c, %p193_15124_d] : memref<16x4x4x10xf32> 
    %p193_15125_a = arith.constant 15 : index
    %p193_15125_b = arith.constant 1 : index
    %p193_15125_c = arith.constant 2 : index
    %p193_15125_d = arith.constant 5 : index
    %p193_15125_v = arith.constant 0.13016054034233093 : f32
    memref.store %p193_15125_v, %15[%p193_15125_a, %p193_15125_b, %p193_15125_c, %p193_15125_d] : memref<16x4x4x10xf32> 
    %p193_15126_a = arith.constant 15 : index
    %p193_15126_b = arith.constant 1 : index
    %p193_15126_c = arith.constant 2 : index
    %p193_15126_d = arith.constant 6 : index
    %p193_15126_v = arith.constant 0.27805688977241516 : f32
    memref.store %p193_15126_v, %15[%p193_15126_a, %p193_15126_b, %p193_15126_c, %p193_15126_d] : memref<16x4x4x10xf32> 
    %p193_15127_a = arith.constant 15 : index
    %p193_15127_b = arith.constant 1 : index
    %p193_15127_c = arith.constant 2 : index
    %p193_15127_d = arith.constant 7 : index
    %p193_15127_v = arith.constant 0.03227982670068741 : f32
    memref.store %p193_15127_v, %15[%p193_15127_a, %p193_15127_b, %p193_15127_c, %p193_15127_d] : memref<16x4x4x10xf32> 
    %p193_15128_a = arith.constant 15 : index
    %p193_15128_b = arith.constant 1 : index
    %p193_15128_c = arith.constant 2 : index
    %p193_15128_d = arith.constant 8 : index
    %p193_15128_v = arith.constant -0.37316036224365234 : f32
    memref.store %p193_15128_v, %15[%p193_15128_a, %p193_15128_b, %p193_15128_c, %p193_15128_d] : memref<16x4x4x10xf32> 
    %p193_15129_a = arith.constant 15 : index
    %p193_15129_b = arith.constant 1 : index
    %p193_15129_c = arith.constant 2 : index
    %p193_15129_d = arith.constant 9 : index
    %p193_15129_v = arith.constant 0.012584247626364231 : f32
    memref.store %p193_15129_v, %15[%p193_15129_a, %p193_15129_b, %p193_15129_c, %p193_15129_d] : memref<16x4x4x10xf32> 
    %p193_15130_a = arith.constant 15 : index
    %p193_15130_b = arith.constant 1 : index
    %p193_15130_c = arith.constant 3 : index
    %p193_15130_d = arith.constant 0 : index
    %p193_15130_v = arith.constant -0.2893730700016022 : f32
    memref.store %p193_15130_v, %15[%p193_15130_a, %p193_15130_b, %p193_15130_c, %p193_15130_d] : memref<16x4x4x10xf32> 
    %p193_15131_a = arith.constant 15 : index
    %p193_15131_b = arith.constant 1 : index
    %p193_15131_c = arith.constant 3 : index
    %p193_15131_d = arith.constant 1 : index
    %p193_15131_v = arith.constant 0.26432105898857117 : f32
    memref.store %p193_15131_v, %15[%p193_15131_a, %p193_15131_b, %p193_15131_c, %p193_15131_d] : memref<16x4x4x10xf32> 
    %p193_15132_a = arith.constant 15 : index
    %p193_15132_b = arith.constant 1 : index
    %p193_15132_c = arith.constant 3 : index
    %p193_15132_d = arith.constant 2 : index
    %p193_15132_v = arith.constant -0.19136705994606018 : f32
    memref.store %p193_15132_v, %15[%p193_15132_a, %p193_15132_b, %p193_15132_c, %p193_15132_d] : memref<16x4x4x10xf32> 
    %p193_15133_a = arith.constant 15 : index
    %p193_15133_b = arith.constant 1 : index
    %p193_15133_c = arith.constant 3 : index
    %p193_15133_d = arith.constant 3 : index
    %p193_15133_v = arith.constant 0.06407898664474487 : f32
    memref.store %p193_15133_v, %15[%p193_15133_a, %p193_15133_b, %p193_15133_c, %p193_15133_d] : memref<16x4x4x10xf32> 
    %p193_15134_a = arith.constant 15 : index
    %p193_15134_b = arith.constant 1 : index
    %p193_15134_c = arith.constant 3 : index
    %p193_15134_d = arith.constant 4 : index
    %p193_15134_v = arith.constant 0.4371691048145294 : f32
    memref.store %p193_15134_v, %15[%p193_15134_a, %p193_15134_b, %p193_15134_c, %p193_15134_d] : memref<16x4x4x10xf32> 
    %p193_15135_a = arith.constant 15 : index
    %p193_15135_b = arith.constant 1 : index
    %p193_15135_c = arith.constant 3 : index
    %p193_15135_d = arith.constant 5 : index
    %p193_15135_v = arith.constant -0.37601014971733093 : f32
    memref.store %p193_15135_v, %15[%p193_15135_a, %p193_15135_b, %p193_15135_c, %p193_15135_d] : memref<16x4x4x10xf32> 
    %p193_15136_a = arith.constant 15 : index
    %p193_15136_b = arith.constant 1 : index
    %p193_15136_c = arith.constant 3 : index
    %p193_15136_d = arith.constant 6 : index
    %p193_15136_v = arith.constant -0.11794907599687576 : f32
    memref.store %p193_15136_v, %15[%p193_15136_a, %p193_15136_b, %p193_15136_c, %p193_15136_d] : memref<16x4x4x10xf32> 
    %p193_15137_a = arith.constant 15 : index
    %p193_15137_b = arith.constant 1 : index
    %p193_15137_c = arith.constant 3 : index
    %p193_15137_d = arith.constant 7 : index
    %p193_15137_v = arith.constant 0.2714056074619293 : f32
    memref.store %p193_15137_v, %15[%p193_15137_a, %p193_15137_b, %p193_15137_c, %p193_15137_d] : memref<16x4x4x10xf32> 
    %p193_15138_a = arith.constant 15 : index
    %p193_15138_b = arith.constant 1 : index
    %p193_15138_c = arith.constant 3 : index
    %p193_15138_d = arith.constant 8 : index
    %p193_15138_v = arith.constant 0.07839961349964142 : f32
    memref.store %p193_15138_v, %15[%p193_15138_a, %p193_15138_b, %p193_15138_c, %p193_15138_d] : memref<16x4x4x10xf32> 
    %p193_15139_a = arith.constant 15 : index
    %p193_15139_b = arith.constant 1 : index
    %p193_15139_c = arith.constant 3 : index
    %p193_15139_d = arith.constant 9 : index
    %p193_15139_v = arith.constant -0.10618531703948975 : f32
    memref.store %p193_15139_v, %15[%p193_15139_a, %p193_15139_b, %p193_15139_c, %p193_15139_d] : memref<16x4x4x10xf32> 
    %p193_15200_a = arith.constant 15 : index
    %p193_15200_b = arith.constant 2 : index
    %p193_15200_c = arith.constant 0 : index
    %p193_15200_d = arith.constant 0 : index
    %p193_15200_v = arith.constant 0.05727149546146393 : f32
    memref.store %p193_15200_v, %15[%p193_15200_a, %p193_15200_b, %p193_15200_c, %p193_15200_d] : memref<16x4x4x10xf32> 
    %p193_15201_a = arith.constant 15 : index
    %p193_15201_b = arith.constant 2 : index
    %p193_15201_c = arith.constant 0 : index
    %p193_15201_d = arith.constant 1 : index
    %p193_15201_v = arith.constant -0.025094496086239815 : f32
    memref.store %p193_15201_v, %15[%p193_15201_a, %p193_15201_b, %p193_15201_c, %p193_15201_d] : memref<16x4x4x10xf32> 
    %p193_15202_a = arith.constant 15 : index
    %p193_15202_b = arith.constant 2 : index
    %p193_15202_c = arith.constant 0 : index
    %p193_15202_d = arith.constant 2 : index
    %p193_15202_v = arith.constant -0.032552920281887054 : f32
    memref.store %p193_15202_v, %15[%p193_15202_a, %p193_15202_b, %p193_15202_c, %p193_15202_d] : memref<16x4x4x10xf32> 
    %p193_15203_a = arith.constant 15 : index
    %p193_15203_b = arith.constant 2 : index
    %p193_15203_c = arith.constant 0 : index
    %p193_15203_d = arith.constant 3 : index
    %p193_15203_v = arith.constant -0.09845414012670517 : f32
    memref.store %p193_15203_v, %15[%p193_15203_a, %p193_15203_b, %p193_15203_c, %p193_15203_d] : memref<16x4x4x10xf32> 
    %p193_15204_a = arith.constant 15 : index
    %p193_15204_b = arith.constant 2 : index
    %p193_15204_c = arith.constant 0 : index
    %p193_15204_d = arith.constant 4 : index
    %p193_15204_v = arith.constant -0.04288288578391075 : f32
    memref.store %p193_15204_v, %15[%p193_15204_a, %p193_15204_b, %p193_15204_c, %p193_15204_d] : memref<16x4x4x10xf32> 
    %p193_15205_a = arith.constant 15 : index
    %p193_15205_b = arith.constant 2 : index
    %p193_15205_c = arith.constant 0 : index
    %p193_15205_d = arith.constant 5 : index
    %p193_15205_v = arith.constant 0.06692660599946976 : f32
    memref.store %p193_15205_v, %15[%p193_15205_a, %p193_15205_b, %p193_15205_c, %p193_15205_d] : memref<16x4x4x10xf32> 
    %p193_15206_a = arith.constant 15 : index
    %p193_15206_b = arith.constant 2 : index
    %p193_15206_c = arith.constant 0 : index
    %p193_15206_d = arith.constant 6 : index
    %p193_15206_v = arith.constant 0.019280241802334785 : f32
    memref.store %p193_15206_v, %15[%p193_15206_a, %p193_15206_b, %p193_15206_c, %p193_15206_d] : memref<16x4x4x10xf32> 
    %p193_15207_a = arith.constant 15 : index
    %p193_15207_b = arith.constant 2 : index
    %p193_15207_c = arith.constant 0 : index
    %p193_15207_d = arith.constant 7 : index
    %p193_15207_v = arith.constant 0.12945666909217834 : f32
    memref.store %p193_15207_v, %15[%p193_15207_a, %p193_15207_b, %p193_15207_c, %p193_15207_d] : memref<16x4x4x10xf32> 
    %p193_15208_a = arith.constant 15 : index
    %p193_15208_b = arith.constant 2 : index
    %p193_15208_c = arith.constant 0 : index
    %p193_15208_d = arith.constant 8 : index
    %p193_15208_v = arith.constant -0.13146249949932098 : f32
    memref.store %p193_15208_v, %15[%p193_15208_a, %p193_15208_b, %p193_15208_c, %p193_15208_d] : memref<16x4x4x10xf32> 
    %p193_15209_a = arith.constant 15 : index
    %p193_15209_b = arith.constant 2 : index
    %p193_15209_c = arith.constant 0 : index
    %p193_15209_d = arith.constant 9 : index
    %p193_15209_v = arith.constant 0.10157602280378342 : f32
    memref.store %p193_15209_v, %15[%p193_15209_a, %p193_15209_b, %p193_15209_c, %p193_15209_d] : memref<16x4x4x10xf32> 
    %p193_15210_a = arith.constant 15 : index
    %p193_15210_b = arith.constant 2 : index
    %p193_15210_c = arith.constant 1 : index
    %p193_15210_d = arith.constant 0 : index
    %p193_15210_v = arith.constant 0.39481303095817566 : f32
    memref.store %p193_15210_v, %15[%p193_15210_a, %p193_15210_b, %p193_15210_c, %p193_15210_d] : memref<16x4x4x10xf32> 
    %p193_15211_a = arith.constant 15 : index
    %p193_15211_b = arith.constant 2 : index
    %p193_15211_c = arith.constant 1 : index
    %p193_15211_d = arith.constant 1 : index
    %p193_15211_v = arith.constant -0.2198140174150467 : f32
    memref.store %p193_15211_v, %15[%p193_15211_a, %p193_15211_b, %p193_15211_c, %p193_15211_d] : memref<16x4x4x10xf32> 
    %p193_15212_a = arith.constant 15 : index
    %p193_15212_b = arith.constant 2 : index
    %p193_15212_c = arith.constant 1 : index
    %p193_15212_d = arith.constant 2 : index
    %p193_15212_v = arith.constant -0.3305916488170624 : f32
    memref.store %p193_15212_v, %15[%p193_15212_a, %p193_15212_b, %p193_15212_c, %p193_15212_d] : memref<16x4x4x10xf32> 
    %p193_15213_a = arith.constant 15 : index
    %p193_15213_b = arith.constant 2 : index
    %p193_15213_c = arith.constant 1 : index
    %p193_15213_d = arith.constant 3 : index
    %p193_15213_v = arith.constant -0.2594653069972992 : f32
    memref.store %p193_15213_v, %15[%p193_15213_a, %p193_15213_b, %p193_15213_c, %p193_15213_d] : memref<16x4x4x10xf32> 
    %p193_15214_a = arith.constant 15 : index
    %p193_15214_b = arith.constant 2 : index
    %p193_15214_c = arith.constant 1 : index
    %p193_15214_d = arith.constant 4 : index
    %p193_15214_v = arith.constant -0.025741614401340485 : f32
    memref.store %p193_15214_v, %15[%p193_15214_a, %p193_15214_b, %p193_15214_c, %p193_15214_d] : memref<16x4x4x10xf32> 
    %p193_15215_a = arith.constant 15 : index
    %p193_15215_b = arith.constant 2 : index
    %p193_15215_c = arith.constant 1 : index
    %p193_15215_d = arith.constant 5 : index
    %p193_15215_v = arith.constant -0.1876814216375351 : f32
    memref.store %p193_15215_v, %15[%p193_15215_a, %p193_15215_b, %p193_15215_c, %p193_15215_d] : memref<16x4x4x10xf32> 
    %p193_15216_a = arith.constant 15 : index
    %p193_15216_b = arith.constant 2 : index
    %p193_15216_c = arith.constant 1 : index
    %p193_15216_d = arith.constant 6 : index
    %p193_15216_v = arith.constant 0.0401863195002079 : f32
    memref.store %p193_15216_v, %15[%p193_15216_a, %p193_15216_b, %p193_15216_c, %p193_15216_d] : memref<16x4x4x10xf32> 
    %p193_15217_a = arith.constant 15 : index
    %p193_15217_b = arith.constant 2 : index
    %p193_15217_c = arith.constant 1 : index
    %p193_15217_d = arith.constant 7 : index
    %p193_15217_v = arith.constant 0.517649233341217 : f32
    memref.store %p193_15217_v, %15[%p193_15217_a, %p193_15217_b, %p193_15217_c, %p193_15217_d] : memref<16x4x4x10xf32> 
    %p193_15218_a = arith.constant 15 : index
    %p193_15218_b = arith.constant 2 : index
    %p193_15218_c = arith.constant 1 : index
    %p193_15218_d = arith.constant 8 : index
    %p193_15218_v = arith.constant -0.03229093924164772 : f32
    memref.store %p193_15218_v, %15[%p193_15218_a, %p193_15218_b, %p193_15218_c, %p193_15218_d] : memref<16x4x4x10xf32> 
    %p193_15219_a = arith.constant 15 : index
    %p193_15219_b = arith.constant 2 : index
    %p193_15219_c = arith.constant 1 : index
    %p193_15219_d = arith.constant 9 : index
    %p193_15219_v = arith.constant 0.03310152515769005 : f32
    memref.store %p193_15219_v, %15[%p193_15219_a, %p193_15219_b, %p193_15219_c, %p193_15219_d] : memref<16x4x4x10xf32> 
    %p193_15220_a = arith.constant 15 : index
    %p193_15220_b = arith.constant 2 : index
    %p193_15220_c = arith.constant 2 : index
    %p193_15220_d = arith.constant 0 : index
    %p193_15220_v = arith.constant -0.06631464511156082 : f32
    memref.store %p193_15220_v, %15[%p193_15220_a, %p193_15220_b, %p193_15220_c, %p193_15220_d] : memref<16x4x4x10xf32> 
    %p193_15221_a = arith.constant 15 : index
    %p193_15221_b = arith.constant 2 : index
    %p193_15221_c = arith.constant 2 : index
    %p193_15221_d = arith.constant 1 : index
    %p193_15221_v = arith.constant 0.3695562183856964 : f32
    memref.store %p193_15221_v, %15[%p193_15221_a, %p193_15221_b, %p193_15221_c, %p193_15221_d] : memref<16x4x4x10xf32> 
    %p193_15222_a = arith.constant 15 : index
    %p193_15222_b = arith.constant 2 : index
    %p193_15222_c = arith.constant 2 : index
    %p193_15222_d = arith.constant 2 : index
    %p193_15222_v = arith.constant 0.08639432489871979 : f32
    memref.store %p193_15222_v, %15[%p193_15222_a, %p193_15222_b, %p193_15222_c, %p193_15222_d] : memref<16x4x4x10xf32> 
    %p193_15223_a = arith.constant 15 : index
    %p193_15223_b = arith.constant 2 : index
    %p193_15223_c = arith.constant 2 : index
    %p193_15223_d = arith.constant 3 : index
    %p193_15223_v = arith.constant -0.21739579737186432 : f32
    memref.store %p193_15223_v, %15[%p193_15223_a, %p193_15223_b, %p193_15223_c, %p193_15223_d] : memref<16x4x4x10xf32> 
    %p193_15224_a = arith.constant 15 : index
    %p193_15224_b = arith.constant 2 : index
    %p193_15224_c = arith.constant 2 : index
    %p193_15224_d = arith.constant 4 : index
    %p193_15224_v = arith.constant -0.32757076621055603 : f32
    memref.store %p193_15224_v, %15[%p193_15224_a, %p193_15224_b, %p193_15224_c, %p193_15224_d] : memref<16x4x4x10xf32> 
    %p193_15225_a = arith.constant 15 : index
    %p193_15225_b = arith.constant 2 : index
    %p193_15225_c = arith.constant 2 : index
    %p193_15225_d = arith.constant 5 : index
    %p193_15225_v = arith.constant 0.20337849855422974 : f32
    memref.store %p193_15225_v, %15[%p193_15225_a, %p193_15225_b, %p193_15225_c, %p193_15225_d] : memref<16x4x4x10xf32> 
    %p193_15226_a = arith.constant 15 : index
    %p193_15226_b = arith.constant 2 : index
    %p193_15226_c = arith.constant 2 : index
    %p193_15226_d = arith.constant 6 : index
    %p193_15226_v = arith.constant 0.04164079576730728 : f32
    memref.store %p193_15226_v, %15[%p193_15226_a, %p193_15226_b, %p193_15226_c, %p193_15226_d] : memref<16x4x4x10xf32> 
    %p193_15227_a = arith.constant 15 : index
    %p193_15227_b = arith.constant 2 : index
    %p193_15227_c = arith.constant 2 : index
    %p193_15227_d = arith.constant 7 : index
    %p193_15227_v = arith.constant -0.037312284111976624 : f32
    memref.store %p193_15227_v, %15[%p193_15227_a, %p193_15227_b, %p193_15227_c, %p193_15227_d] : memref<16x4x4x10xf32> 
    %p193_15228_a = arith.constant 15 : index
    %p193_15228_b = arith.constant 2 : index
    %p193_15228_c = arith.constant 2 : index
    %p193_15228_d = arith.constant 8 : index
    %p193_15228_v = arith.constant 0.2564018964767456 : f32
    memref.store %p193_15228_v, %15[%p193_15228_a, %p193_15228_b, %p193_15228_c, %p193_15228_d] : memref<16x4x4x10xf32> 
    %p193_15229_a = arith.constant 15 : index
    %p193_15229_b = arith.constant 2 : index
    %p193_15229_c = arith.constant 2 : index
    %p193_15229_d = arith.constant 9 : index
    %p193_15229_v = arith.constant -0.2610512375831604 : f32
    memref.store %p193_15229_v, %15[%p193_15229_a, %p193_15229_b, %p193_15229_c, %p193_15229_d] : memref<16x4x4x10xf32> 
    %p193_15230_a = arith.constant 15 : index
    %p193_15230_b = arith.constant 2 : index
    %p193_15230_c = arith.constant 3 : index
    %p193_15230_d = arith.constant 0 : index
    %p193_15230_v = arith.constant 0.29753121733665466 : f32
    memref.store %p193_15230_v, %15[%p193_15230_a, %p193_15230_b, %p193_15230_c, %p193_15230_d] : memref<16x4x4x10xf32> 
    %p193_15231_a = arith.constant 15 : index
    %p193_15231_b = arith.constant 2 : index
    %p193_15231_c = arith.constant 3 : index
    %p193_15231_d = arith.constant 1 : index
    %p193_15231_v = arith.constant -0.13256239891052246 : f32
    memref.store %p193_15231_v, %15[%p193_15231_a, %p193_15231_b, %p193_15231_c, %p193_15231_d] : memref<16x4x4x10xf32> 
    %p193_15232_a = arith.constant 15 : index
    %p193_15232_b = arith.constant 2 : index
    %p193_15232_c = arith.constant 3 : index
    %p193_15232_d = arith.constant 2 : index
    %p193_15232_v = arith.constant 0.3487018942832947 : f32
    memref.store %p193_15232_v, %15[%p193_15232_a, %p193_15232_b, %p193_15232_c, %p193_15232_d] : memref<16x4x4x10xf32> 
    %p193_15233_a = arith.constant 15 : index
    %p193_15233_b = arith.constant 2 : index
    %p193_15233_c = arith.constant 3 : index
    %p193_15233_d = arith.constant 3 : index
    %p193_15233_v = arith.constant -0.4000661373138428 : f32
    memref.store %p193_15233_v, %15[%p193_15233_a, %p193_15233_b, %p193_15233_c, %p193_15233_d] : memref<16x4x4x10xf32> 
    %p193_15234_a = arith.constant 15 : index
    %p193_15234_b = arith.constant 2 : index
    %p193_15234_c = arith.constant 3 : index
    %p193_15234_d = arith.constant 4 : index
    %p193_15234_v = arith.constant -0.023854920640587807 : f32
    memref.store %p193_15234_v, %15[%p193_15234_a, %p193_15234_b, %p193_15234_c, %p193_15234_d] : memref<16x4x4x10xf32> 
    %p193_15235_a = arith.constant 15 : index
    %p193_15235_b = arith.constant 2 : index
    %p193_15235_c = arith.constant 3 : index
    %p193_15235_d = arith.constant 5 : index
    %p193_15235_v = arith.constant 0.1528821736574173 : f32
    memref.store %p193_15235_v, %15[%p193_15235_a, %p193_15235_b, %p193_15235_c, %p193_15235_d] : memref<16x4x4x10xf32> 
    %p193_15236_a = arith.constant 15 : index
    %p193_15236_b = arith.constant 2 : index
    %p193_15236_c = arith.constant 3 : index
    %p193_15236_d = arith.constant 6 : index
    %p193_15236_v = arith.constant -0.35060834884643555 : f32
    memref.store %p193_15236_v, %15[%p193_15236_a, %p193_15236_b, %p193_15236_c, %p193_15236_d] : memref<16x4x4x10xf32> 
    %p193_15237_a = arith.constant 15 : index
    %p193_15237_b = arith.constant 2 : index
    %p193_15237_c = arith.constant 3 : index
    %p193_15237_d = arith.constant 7 : index
    %p193_15237_v = arith.constant 0.4014970362186432 : f32
    memref.store %p193_15237_v, %15[%p193_15237_a, %p193_15237_b, %p193_15237_c, %p193_15237_d] : memref<16x4x4x10xf32> 
    %p193_15238_a = arith.constant 15 : index
    %p193_15238_b = arith.constant 2 : index
    %p193_15238_c = arith.constant 3 : index
    %p193_15238_d = arith.constant 8 : index
    %p193_15238_v = arith.constant -0.005652683787047863 : f32
    memref.store %p193_15238_v, %15[%p193_15238_a, %p193_15238_b, %p193_15238_c, %p193_15238_d] : memref<16x4x4x10xf32> 
    %p193_15239_a = arith.constant 15 : index
    %p193_15239_b = arith.constant 2 : index
    %p193_15239_c = arith.constant 3 : index
    %p193_15239_d = arith.constant 9 : index
    %p193_15239_v = arith.constant -0.255825936794281 : f32
    memref.store %p193_15239_v, %15[%p193_15239_a, %p193_15239_b, %p193_15239_c, %p193_15239_d] : memref<16x4x4x10xf32> 
    %p193_15300_a = arith.constant 15 : index
    %p193_15300_b = arith.constant 3 : index
    %p193_15300_c = arith.constant 0 : index
    %p193_15300_d = arith.constant 0 : index
    %p193_15300_v = arith.constant -0.03075651079416275 : f32
    memref.store %p193_15300_v, %15[%p193_15300_a, %p193_15300_b, %p193_15300_c, %p193_15300_d] : memref<16x4x4x10xf32> 
    %p193_15301_a = arith.constant 15 : index
    %p193_15301_b = arith.constant 3 : index
    %p193_15301_c = arith.constant 0 : index
    %p193_15301_d = arith.constant 1 : index
    %p193_15301_v = arith.constant -0.12134594470262527 : f32
    memref.store %p193_15301_v, %15[%p193_15301_a, %p193_15301_b, %p193_15301_c, %p193_15301_d] : memref<16x4x4x10xf32> 
    %p193_15302_a = arith.constant 15 : index
    %p193_15302_b = arith.constant 3 : index
    %p193_15302_c = arith.constant 0 : index
    %p193_15302_d = arith.constant 2 : index
    %p193_15302_v = arith.constant -0.14143721759319305 : f32
    memref.store %p193_15302_v, %15[%p193_15302_a, %p193_15302_b, %p193_15302_c, %p193_15302_d] : memref<16x4x4x10xf32> 
    %p193_15303_a = arith.constant 15 : index
    %p193_15303_b = arith.constant 3 : index
    %p193_15303_c = arith.constant 0 : index
    %p193_15303_d = arith.constant 3 : index
    %p193_15303_v = arith.constant 0.05910177528858185 : f32
    memref.store %p193_15303_v, %15[%p193_15303_a, %p193_15303_b, %p193_15303_c, %p193_15303_d] : memref<16x4x4x10xf32> 
    %p193_15304_a = arith.constant 15 : index
    %p193_15304_b = arith.constant 3 : index
    %p193_15304_c = arith.constant 0 : index
    %p193_15304_d = arith.constant 4 : index
    %p193_15304_v = arith.constant -0.08720672130584717 : f32
    memref.store %p193_15304_v, %15[%p193_15304_a, %p193_15304_b, %p193_15304_c, %p193_15304_d] : memref<16x4x4x10xf32> 
    %p193_15305_a = arith.constant 15 : index
    %p193_15305_b = arith.constant 3 : index
    %p193_15305_c = arith.constant 0 : index
    %p193_15305_d = arith.constant 5 : index
    %p193_15305_v = arith.constant 0.09060525894165039 : f32
    memref.store %p193_15305_v, %15[%p193_15305_a, %p193_15305_b, %p193_15305_c, %p193_15305_d] : memref<16x4x4x10xf32> 
    %p193_15306_a = arith.constant 15 : index
    %p193_15306_b = arith.constant 3 : index
    %p193_15306_c = arith.constant 0 : index
    %p193_15306_d = arith.constant 6 : index
    %p193_15306_v = arith.constant 0.009084035642445087 : f32
    memref.store %p193_15306_v, %15[%p193_15306_a, %p193_15306_b, %p193_15306_c, %p193_15306_d] : memref<16x4x4x10xf32> 
    %p193_15307_a = arith.constant 15 : index
    %p193_15307_b = arith.constant 3 : index
    %p193_15307_c = arith.constant 0 : index
    %p193_15307_d = arith.constant 7 : index
    %p193_15307_v = arith.constant 0.006501815747469664 : f32
    memref.store %p193_15307_v, %15[%p193_15307_a, %p193_15307_b, %p193_15307_c, %p193_15307_d] : memref<16x4x4x10xf32> 
    %p193_15308_a = arith.constant 15 : index
    %p193_15308_b = arith.constant 3 : index
    %p193_15308_c = arith.constant 0 : index
    %p193_15308_d = arith.constant 8 : index
    %p193_15308_v = arith.constant 0.00593680702149868 : f32
    memref.store %p193_15308_v, %15[%p193_15308_a, %p193_15308_b, %p193_15308_c, %p193_15308_d] : memref<16x4x4x10xf32> 
    %p193_15309_a = arith.constant 15 : index
    %p193_15309_b = arith.constant 3 : index
    %p193_15309_c = arith.constant 0 : index
    %p193_15309_d = arith.constant 9 : index
    %p193_15309_v = arith.constant -0.008353408426046371 : f32
    memref.store %p193_15309_v, %15[%p193_15309_a, %p193_15309_b, %p193_15309_c, %p193_15309_d] : memref<16x4x4x10xf32> 
    %p193_15310_a = arith.constant 15 : index
    %p193_15310_b = arith.constant 3 : index
    %p193_15310_c = arith.constant 1 : index
    %p193_15310_d = arith.constant 0 : index
    %p193_15310_v = arith.constant -0.1778673529624939 : f32
    memref.store %p193_15310_v, %15[%p193_15310_a, %p193_15310_b, %p193_15310_c, %p193_15310_d] : memref<16x4x4x10xf32> 
    %p193_15311_a = arith.constant 15 : index
    %p193_15311_b = arith.constant 3 : index
    %p193_15311_c = arith.constant 1 : index
    %p193_15311_d = arith.constant 1 : index
    %p193_15311_v = arith.constant 0.45000123977661133 : f32
    memref.store %p193_15311_v, %15[%p193_15311_a, %p193_15311_b, %p193_15311_c, %p193_15311_d] : memref<16x4x4x10xf32> 
    %p193_15312_a = arith.constant 15 : index
    %p193_15312_b = arith.constant 3 : index
    %p193_15312_c = arith.constant 1 : index
    %p193_15312_d = arith.constant 2 : index
    %p193_15312_v = arith.constant -0.155264750123024 : f32
    memref.store %p193_15312_v, %15[%p193_15312_a, %p193_15312_b, %p193_15312_c, %p193_15312_d] : memref<16x4x4x10xf32> 
    %p193_15313_a = arith.constant 15 : index
    %p193_15313_b = arith.constant 3 : index
    %p193_15313_c = arith.constant 1 : index
    %p193_15313_d = arith.constant 3 : index
    %p193_15313_v = arith.constant -0.2107311338186264 : f32
    memref.store %p193_15313_v, %15[%p193_15313_a, %p193_15313_b, %p193_15313_c, %p193_15313_d] : memref<16x4x4x10xf32> 
    %p193_15314_a = arith.constant 15 : index
    %p193_15314_b = arith.constant 3 : index
    %p193_15314_c = arith.constant 1 : index
    %p193_15314_d = arith.constant 4 : index
    %p193_15314_v = arith.constant 0.06659012287855148 : f32
    memref.store %p193_15314_v, %15[%p193_15314_a, %p193_15314_b, %p193_15314_c, %p193_15314_d] : memref<16x4x4x10xf32> 
    %p193_15315_a = arith.constant 15 : index
    %p193_15315_b = arith.constant 3 : index
    %p193_15315_c = arith.constant 1 : index
    %p193_15315_d = arith.constant 5 : index
    %p193_15315_v = arith.constant 0.16235144436359406 : f32
    memref.store %p193_15315_v, %15[%p193_15315_a, %p193_15315_b, %p193_15315_c, %p193_15315_d] : memref<16x4x4x10xf32> 
    %p193_15316_a = arith.constant 15 : index
    %p193_15316_b = arith.constant 3 : index
    %p193_15316_c = arith.constant 1 : index
    %p193_15316_d = arith.constant 6 : index
    %p193_15316_v = arith.constant -0.06506900489330292 : f32
    memref.store %p193_15316_v, %15[%p193_15316_a, %p193_15316_b, %p193_15316_c, %p193_15316_d] : memref<16x4x4x10xf32> 
    %p193_15317_a = arith.constant 15 : index
    %p193_15317_b = arith.constant 3 : index
    %p193_15317_c = arith.constant 1 : index
    %p193_15317_d = arith.constant 7 : index
    %p193_15317_v = arith.constant 0.0013953248271718621 : f32
    memref.store %p193_15317_v, %15[%p193_15317_a, %p193_15317_b, %p193_15317_c, %p193_15317_d] : memref<16x4x4x10xf32> 
    %p193_15318_a = arith.constant 15 : index
    %p193_15318_b = arith.constant 3 : index
    %p193_15318_c = arith.constant 1 : index
    %p193_15318_d = arith.constant 8 : index
    %p193_15318_v = arith.constant -0.18484102189540863 : f32
    memref.store %p193_15318_v, %15[%p193_15318_a, %p193_15318_b, %p193_15318_c, %p193_15318_d] : memref<16x4x4x10xf32> 
    %p193_15319_a = arith.constant 15 : index
    %p193_15319_b = arith.constant 3 : index
    %p193_15319_c = arith.constant 1 : index
    %p193_15319_d = arith.constant 9 : index
    %p193_15319_v = arith.constant -0.1127871423959732 : f32
    memref.store %p193_15319_v, %15[%p193_15319_a, %p193_15319_b, %p193_15319_c, %p193_15319_d] : memref<16x4x4x10xf32> 
    %p193_15320_a = arith.constant 15 : index
    %p193_15320_b = arith.constant 3 : index
    %p193_15320_c = arith.constant 2 : index
    %p193_15320_d = arith.constant 0 : index
    %p193_15320_v = arith.constant -0.1005692258477211 : f32
    memref.store %p193_15320_v, %15[%p193_15320_a, %p193_15320_b, %p193_15320_c, %p193_15320_d] : memref<16x4x4x10xf32> 
    %p193_15321_a = arith.constant 15 : index
    %p193_15321_b = arith.constant 3 : index
    %p193_15321_c = arith.constant 2 : index
    %p193_15321_d = arith.constant 1 : index
    %p193_15321_v = arith.constant 0.09815281629562378 : f32
    memref.store %p193_15321_v, %15[%p193_15321_a, %p193_15321_b, %p193_15321_c, %p193_15321_d] : memref<16x4x4x10xf32> 
    %p193_15322_a = arith.constant 15 : index
    %p193_15322_b = arith.constant 3 : index
    %p193_15322_c = arith.constant 2 : index
    %p193_15322_d = arith.constant 2 : index
    %p193_15322_v = arith.constant -0.20032277703285217 : f32
    memref.store %p193_15322_v, %15[%p193_15322_a, %p193_15322_b, %p193_15322_c, %p193_15322_d] : memref<16x4x4x10xf32> 
    %p193_15323_a = arith.constant 15 : index
    %p193_15323_b = arith.constant 3 : index
    %p193_15323_c = arith.constant 2 : index
    %p193_15323_d = arith.constant 3 : index
    %p193_15323_v = arith.constant 0.0055577936582267284 : f32
    memref.store %p193_15323_v, %15[%p193_15323_a, %p193_15323_b, %p193_15323_c, %p193_15323_d] : memref<16x4x4x10xf32> 
    %p193_15324_a = arith.constant 15 : index
    %p193_15324_b = arith.constant 3 : index
    %p193_15324_c = arith.constant 2 : index
    %p193_15324_d = arith.constant 4 : index
    %p193_15324_v = arith.constant 0.3638778626918793 : f32
    memref.store %p193_15324_v, %15[%p193_15324_a, %p193_15324_b, %p193_15324_c, %p193_15324_d] : memref<16x4x4x10xf32> 
    %p193_15325_a = arith.constant 15 : index
    %p193_15325_b = arith.constant 3 : index
    %p193_15325_c = arith.constant 2 : index
    %p193_15325_d = arith.constant 5 : index
    %p193_15325_v = arith.constant 0.11251764744520187 : f32
    memref.store %p193_15325_v, %15[%p193_15325_a, %p193_15325_b, %p193_15325_c, %p193_15325_d] : memref<16x4x4x10xf32> 
    %p193_15326_a = arith.constant 15 : index
    %p193_15326_b = arith.constant 3 : index
    %p193_15326_c = arith.constant 2 : index
    %p193_15326_d = arith.constant 6 : index
    %p193_15326_v = arith.constant -0.4635980427265167 : f32
    memref.store %p193_15326_v, %15[%p193_15326_a, %p193_15326_b, %p193_15326_c, %p193_15326_d] : memref<16x4x4x10xf32> 
    %p193_15327_a = arith.constant 15 : index
    %p193_15327_b = arith.constant 3 : index
    %p193_15327_c = arith.constant 2 : index
    %p193_15327_d = arith.constant 7 : index
    %p193_15327_v = arith.constant 0.061428215354681015 : f32
    memref.store %p193_15327_v, %15[%p193_15327_a, %p193_15327_b, %p193_15327_c, %p193_15327_d] : memref<16x4x4x10xf32> 
    %p193_15328_a = arith.constant 15 : index
    %p193_15328_b = arith.constant 3 : index
    %p193_15328_c = arith.constant 2 : index
    %p193_15328_d = arith.constant 8 : index
    %p193_15328_v = arith.constant -0.37369653582572937 : f32
    memref.store %p193_15328_v, %15[%p193_15328_a, %p193_15328_b, %p193_15328_c, %p193_15328_d] : memref<16x4x4x10xf32> 
    %p193_15329_a = arith.constant 15 : index
    %p193_15329_b = arith.constant 3 : index
    %p193_15329_c = arith.constant 2 : index
    %p193_15329_d = arith.constant 9 : index
    %p193_15329_v = arith.constant 0.518852174282074 : f32
    memref.store %p193_15329_v, %15[%p193_15329_a, %p193_15329_b, %p193_15329_c, %p193_15329_d] : memref<16x4x4x10xf32> 
    %p193_15330_a = arith.constant 15 : index
    %p193_15330_b = arith.constant 3 : index
    %p193_15330_c = arith.constant 3 : index
    %p193_15330_d = arith.constant 0 : index
    %p193_15330_v = arith.constant 0.12878790497779846 : f32
    memref.store %p193_15330_v, %15[%p193_15330_a, %p193_15330_b, %p193_15330_c, %p193_15330_d] : memref<16x4x4x10xf32> 
    %p193_15331_a = arith.constant 15 : index
    %p193_15331_b = arith.constant 3 : index
    %p193_15331_c = arith.constant 3 : index
    %p193_15331_d = arith.constant 1 : index
    %p193_15331_v = arith.constant -0.11820309609174728 : f32
    memref.store %p193_15331_v, %15[%p193_15331_a, %p193_15331_b, %p193_15331_c, %p193_15331_d] : memref<16x4x4x10xf32> 
    %p193_15332_a = arith.constant 15 : index
    %p193_15332_b = arith.constant 3 : index
    %p193_15332_c = arith.constant 3 : index
    %p193_15332_d = arith.constant 2 : index
    %p193_15332_v = arith.constant -0.13900822401046753 : f32
    memref.store %p193_15332_v, %15[%p193_15332_a, %p193_15332_b, %p193_15332_c, %p193_15332_d] : memref<16x4x4x10xf32> 
    %p193_15333_a = arith.constant 15 : index
    %p193_15333_b = arith.constant 3 : index
    %p193_15333_c = arith.constant 3 : index
    %p193_15333_d = arith.constant 3 : index
    %p193_15333_v = arith.constant 0.20781944692134857 : f32
    memref.store %p193_15333_v, %15[%p193_15333_a, %p193_15333_b, %p193_15333_c, %p193_15333_d] : memref<16x4x4x10xf32> 
    %p193_15334_a = arith.constant 15 : index
    %p193_15334_b = arith.constant 3 : index
    %p193_15334_c = arith.constant 3 : index
    %p193_15334_d = arith.constant 4 : index
    %p193_15334_v = arith.constant -0.2720746695995331 : f32
    memref.store %p193_15334_v, %15[%p193_15334_a, %p193_15334_b, %p193_15334_c, %p193_15334_d] : memref<16x4x4x10xf32> 
    %p193_15335_a = arith.constant 15 : index
    %p193_15335_b = arith.constant 3 : index
    %p193_15335_c = arith.constant 3 : index
    %p193_15335_d = arith.constant 5 : index
    %p193_15335_v = arith.constant 0.2698860466480255 : f32
    memref.store %p193_15335_v, %15[%p193_15335_a, %p193_15335_b, %p193_15335_c, %p193_15335_d] : memref<16x4x4x10xf32> 
    %p193_15336_a = arith.constant 15 : index
    %p193_15336_b = arith.constant 3 : index
    %p193_15336_c = arith.constant 3 : index
    %p193_15336_d = arith.constant 6 : index
    %p193_15336_v = arith.constant -0.22185003757476807 : f32
    memref.store %p193_15336_v, %15[%p193_15336_a, %p193_15336_b, %p193_15336_c, %p193_15336_d] : memref<16x4x4x10xf32> 
    %p193_15337_a = arith.constant 15 : index
    %p193_15337_b = arith.constant 3 : index
    %p193_15337_c = arith.constant 3 : index
    %p193_15337_d = arith.constant 7 : index
    %p193_15337_v = arith.constant 0.23510172963142395 : f32
    memref.store %p193_15337_v, %15[%p193_15337_a, %p193_15337_b, %p193_15337_c, %p193_15337_d] : memref<16x4x4x10xf32> 
    %p193_15338_a = arith.constant 15 : index
    %p193_15338_b = arith.constant 3 : index
    %p193_15338_c = arith.constant 3 : index
    %p193_15338_d = arith.constant 8 : index
    %p193_15338_v = arith.constant -0.03656299039721489 : f32
    memref.store %p193_15338_v, %15[%p193_15338_a, %p193_15338_b, %p193_15338_c, %p193_15338_d] : memref<16x4x4x10xf32> 
    %p193_15339_a = arith.constant 15 : index
    %p193_15339_b = arith.constant 3 : index
    %p193_15339_c = arith.constant 3 : index
    %p193_15339_d = arith.constant 9 : index
    %p193_15339_v = arith.constant 0.122023805975914 : f32
    memref.store %p193_15339_v, %15[%p193_15339_a, %p193_15339_b, %p193_15339_c, %p193_15339_d] : memref<16x4x4x10xf32> 
    %16 = memref.reinterpret_cast %15 to offset: [0], sizes: [256, 10], strides: [10, 1] : memref<16x4x4x10xf32> to memref<256x10xf32>    %17 = memref.alloc() : memref<1x10xf32>
    %p194_0_0_a = arith.constant 0 : index
    %p194_0_0_b = arith.constant 0 : index
    %p194_0_0_v = arith.constant -0.04485602676868439 : f32
    memref.store %p194_0_0_v, %17[%p194_0_0_a,  %p194_0_0_b] : memref<1x10xf32> 
    %p194_0_1_a = arith.constant 0 : index
    %p194_0_1_b = arith.constant 1 : index
    %p194_0_1_v = arith.constant 0.007791661191731691 : f32
    memref.store %p194_0_1_v, %17[%p194_0_1_a,  %p194_0_1_b] : memref<1x10xf32> 
    %p194_0_2_a = arith.constant 0 : index
    %p194_0_2_b = arith.constant 2 : index
    %p194_0_2_v = arith.constant 0.06810081750154495 : f32
    memref.store %p194_0_2_v, %17[%p194_0_2_a,  %p194_0_2_b] : memref<1x10xf32> 
    %p194_0_3_a = arith.constant 0 : index
    %p194_0_3_b = arith.constant 3 : index
    %p194_0_3_v = arith.constant 0.02999374084174633 : f32
    memref.store %p194_0_3_v, %17[%p194_0_3_a,  %p194_0_3_b] : memref<1x10xf32> 
    %p194_0_4_a = arith.constant 0 : index
    %p194_0_4_b = arith.constant 4 : index
    %p194_0_4_v = arith.constant -0.1264096349477768 : f32
    memref.store %p194_0_4_v, %17[%p194_0_4_a,  %p194_0_4_b] : memref<1x10xf32> 
    %p194_0_5_a = arith.constant 0 : index
    %p194_0_5_b = arith.constant 5 : index
    %p194_0_5_v = arith.constant 0.14021874964237213 : f32
    memref.store %p194_0_5_v, %17[%p194_0_5_a,  %p194_0_5_b] : memref<1x10xf32> 
    %p194_0_6_a = arith.constant 0 : index
    %p194_0_6_b = arith.constant 6 : index
    %p194_0_6_v = arith.constant -0.055284902453422546 : f32
    memref.store %p194_0_6_v, %17[%p194_0_6_a,  %p194_0_6_b] : memref<1x10xf32> 
    %p194_0_7_a = arith.constant 0 : index
    %p194_0_7_b = arith.constant 7 : index
    %p194_0_7_v = arith.constant -0.04938381537795067 : f32
    memref.store %p194_0_7_v, %17[%p194_0_7_a,  %p194_0_7_b] : memref<1x10xf32> 
    %p194_0_8_a = arith.constant 0 : index
    %p194_0_8_b = arith.constant 8 : index
    %p194_0_8_v = arith.constant 0.08432205021381378 : f32
    memref.store %p194_0_8_v, %17[%p194_0_8_a,  %p194_0_8_b] : memref<1x10xf32> 
    %p194_0_9_a = arith.constant 0 : index
    %p194_0_9_b = arith.constant 9 : index
    %p194_0_9_v = arith.constant -0.05454041436314583 : f32
    memref.store %p194_0_9_v, %17[%p194_0_9_a,  %p194_0_9_b] : memref<1x10xf32> 
    %18 = memref.alloc() {alignment = 128 : i64} : memref<1x10xf32>
    %19 = memref.alloc() : memref<f32>
    affine.for %arg1 = 0 to 1 {
      affine.for %arg2 = 0 to 10 {
        affine.store %cst_0, %19[] : memref<f32>
        affine.for %arg3 = 0 to 256 {
          %23 = affine.load %14[%arg1, %arg3] : memref<1x256xf32>
          %24 = affine.load %16[%arg3, %arg2] : memref<256x10xf32>
          %25 = arith.mulf %23, %24 : f32
          %26 = affine.load %19[] : memref<f32>
          %27 = arith.addf %25, %26 : f32
          affine.store %27, %19[] : memref<f32>
        }
        %20 = affine.load %19[] : memref<f32>
        %21 = affine.load %17[%c0, %arg2] : memref<1x10xf32>
        %22 = arith.addf %20, %21 : f32
        affine.store %22, %18[%arg1, %arg2] : memref<1x10xf32>
      }
    }
    %C2_ = memref.cast %18 : memref<1x10xf32> to memref<*xf32>
    call @printMemrefF32(%C2_) : (memref<*xf32>) -> ()
    return
}